Projets/[MachineLearning&Signal]Detection_contours/weights_feature_maps.pt (torch, 744513 bytes, 11 tensors)

encodeur1.weight f4 [32, 1, 3, 3]
000000 30 86 81 be 7d b3 0a 3e e0 ed 84 be ee 7d b3 3c
       -0.2529769 0.13545032 -0.25962734 0.021910634
000010 c4 71 8d be 6e ac 78 be dc 99 38 3e 37 58 5a 3e
       -0.2762586 -0.24284527 0.18027443 0.21322714
000020 35 81 69 be b3 d3 13 3d 37 10 bd 3d 1c 02 c0 3d
       -0.22803195 0.036090564 0.09231608 0.09375402
000030 c6 68 98 3e 93 42 84 be 50 92 23 3d 3d d5 92 be
       0.29767436 -0.25832042 0.039934456 -0.28678313
000040 27 55 9f be cc 9c 4d 3e f1 82 1b bd 51 c0 a0 be
       -0.31119654 0.20079345 -0.037966672 -0.31396726
000050 18 d7 4e bc 24 ce ab be 68 d8 9f be 79 5f 98 be
       -0.0126245245 -0.3355571 -0.31219792 -0.2976034
000060 2a a2 4a 3e 7a e1 d9 3d d8 e5 bb be cd 78 73 be
       0.19788423 0.10638709 -0.36698794 -0.2377655
000070 51 fc 93 bc d7 76 06 bf bc e5 69 3e d8 fb 08 3f
       -0.01806465 -0.52525085 0.22841543 0.53509283
000080 68 87 65 3e 67 8c af bc 6d 48 c8 3e 1f aa 23 3e
       0.22414935 -0.021429254 0.39117756 0.15982865
000090 1b f8 9e be 05 8a c3 bd 1a b6 d3 3d e4 f4 29 3d
       -0.31048664 -0.095478095 0.103374675 0.04149331
0000a0 fe a4 0d 3b 3c 74 ae 3e cb fe 33 3d 8d d3 e3 be
       0.0021613236 0.34073055 0.04394416 -0.44497338
0000b0 82 45 be be 85 df 23 3f 23 40 e6 be 4d 7b 02 3e
       -0.37162405 0.6401294 -0.44970807 0.12742348
0000c0 62 d6 73 3f 7b 54 b1 3d 68 de e7 3e ce 9e 5c 3e
       0.95249 0.086586915 0.4528687 0.21544954
0000d0 42 d0 cc bf fb 46 12 bf 43 42 de 3d 99 dc c3 3d
       -1.6001055 -0.5713956 0.10852482 0.0956356
0000e0 ae 49 de 3d 05 d9 c9 be 94 ed 94 bd b5 b8 40 be
       0.10853897 -0.39423385 -0.07271877 -0.1882046
0000f0 86 b2 7f bc e0 ce 08 3d c4 4f 11 bd 8f d3 32 be
       -0.015606528 0.033400416 -0.03547646 -0.17463516
000100 60 df 79 be 62 8d 92 3e b9 17 eb bb 29 35 4e be
       -0.24401617 0.28623492 -0.007174459 -0.20137466
000110 2b 85 fe 3d ea d8 84 be 90 09 07 3e 8f 11 fa 3c
       0.124277435 -0.25946742 0.13187242 0.03052595
000120 35 79 4f be b4 2c 73 3e 09 0a 73 3d 49 e1 cf 3d
       -0.2026108 0.23747522 0.059335742 0.101503916
000130 a4 ac 8b be ca 24 37 be 99 59 33 be e8 de a0 3e
       -0.27280152 -0.17885128 -0.17514648 0.31420064
000140 1a 9d b1 bd a4 ff d7 bc 98 9c 0b bf 90 96 33 bd
       -0.08672543 -0.026367016 -0.5453582 -0.04384476
000150 d4 4d 5e 3d c6 e6 ec bd 88 a0 a1 3d a3 0d a5 be
       0.05427344 -0.11567454 0.07891947 -0.32236966
000160 c4 da 17 be 7d 69 af 3d 2e fa ba be e4 4b 2b be
       -0.14829546 0.08565042 -0.36518997 -0.16728169
000170 5e dc 96 be ba d1 74 be 6b 81 6c 3e 03 2d 80 3e
       -0.29465002 -0.2390813 0.23096244 0.2503434
000180 6c d8 11 be 61 ca 4a 3e 0d 5b 0a be 79 04 bc be
       -0.14242715 0.19803764 -0.13511296 -0.36722162
000190 5d 3a 99 3e a4 a1 f6 3e 2d 1f 46 bf c2 f9 71 be
       0.2992734 0.48170197 -0.7739132 -0.23630431
0001a0 59 a5 c0 3d a1 b9 16 bf af 0b 92 be b1 71 59 be
       0.094065376 -0.58877 -0.2852454 -0.21234776
0001b0 61 5c 73 be 71 b2 33 bf 2f 9e b1 be fd 5e 9a be
       -0.23765709 -0.70194155 -0.34690997 -0.30150595
0001c0 54 6f db be a6 5a 05 bf 79 8b 86 3e 2f f0 a0 bc
       -0.42858374 -0.52091444 0.26278284 -0.019645778
0001d0 6b 26 25 be b7 cf c3 3e c8 69 2c 3e 1b 1b 91 bb
       -0.16127937 0.3824441 0.16837227 -0.00442828
0001e0 8b 02 54 3c 7e 02 86 be 37 99 0f bf 04 12 e8 3d
       0.012940059 -0.26173776 -0.5609316 0.11331561
0001f0 2e ad 03 bf 7b df dd be 04 45 86 3e ed 79 12 be
       -0.51436126 -0.43334565 0.2622453 -0.14304323
000200 99 12 b2 3d a2 ae 4d 3e 5e b1 7d 3e c4 fb 9f be
       0.086949535 0.20086148 0.24774691 -0.3124677
000210 aa 55 83 be e4 5f 59 3e 66 60 a6 be fe 74 58 3e
       -0.25651294 0.21227986 -0.3249542 0.21138379
000220 6b 7d 0d 3f 21 4f 49 3f 6a 82 6e bf ea 68 0f bf
       0.552695 0.78636366 -0.93167746 -0.5601946
000230 28 01 f4 3e cd b2 e7 be 30 a8 81 be 91 cc 27 3e
       0.47657132 -0.45253602 -0.2532363 0.1638663
000240 66 c5 8c 3e ac 42 23 3d 66 ba 4e be 8f ca a7 bd
       0.27494353 0.039858505 -0.20188293 -0.08192932
000250 ad 8c a8 be 10 ea 25 bd 95 2a 30 be 63 68 9e 3e
       -0.32919827 -0.040506423 -0.17203744 0.30939016
000260 c1 d2 85 be ee 6e 94 be dd d2 7f 3e 52 5d d9 bd
       -0.26137355 -0.28990883 0.24982782 -0.106135026
000270 8e 2a 17 3e 6b b8 e0 3d 5c 91 fa bd 37 ba 38 3c
       0.14762327 0.10972675 -0.12234756 0.011274866
000280 f6 60 a1 bd 25 97 4f be e3 03 4c 3e b7 fa 88 3d
       -0.07879822 -0.20272501 0.19923358 0.06688445
000290 fa ec 5a 3e 6e c6 16 bf fb af dd bd 5b e3 9e be
       0.21379462 -0.5889653 -0.10824581 -0.31032833
0002a0 da 39 1e bf bb c1 54 bb 4e 13 08 bf f9 9c 8e bc
       -0.61807024 -0.0032464105 -0.53154457 -0.017408835
0002b0 53 ba 88 be 68 4a a3 bc 44 17 ca bd b5 02 7d bc
       -0.26704654 -0.01993294 -0.09867719 -0.01544254
0002c0 65 24 58 bd f7 f5 8c 3d d2 b8 57 3c 73 2e 67 3d
       -0.052769084 0.068828516 0.013166623 0.05644078
0002d0 70 26 9d be 94 aa 8a be ed 8d f5 3e 98 b5 cc be
       -0.30693388 -0.27083266 0.47959843 -0.39982295
0002e0 95 00 bf be fb 4c 2b 3e 93 d5 38 be d6 0e ac 3d
       -0.37305132 0.16728584 -0.18050222 0.08401267
0002f0 5a 10 0d 3f 52 a9 c3 be 04 3e 7e be 25 0c b1 3e
       0.55103076 -0.3821512 -0.24828345 0.34579578
000300 88 09 29 3e 64 1b e4 be 7b 14 7d 3e be d5 70 be
       0.16507542 -0.44552147 0.24714844 -0.23519036
000310 d6 e7 2a 3e 66 44 19 be 25 87 0d 3d a5 c5 91 be
       0.16690001 -0.14967498 0.034552712 -0.28471103
000320 6e 65 5a bd 25 84 0c be 7d a0 e2 3d 7d 94 ac bb
       -0.053319387 -0.13722284 0.11065767 -0.0052667246
000330 c9 c2 96 3d 55 b1 0a 3e 86 bd e5 3c cd 7b fa 3c
       0.07361371 0.1354421 0.028044473 0.030576611
000340 6c d2 85 bd bd 0a b9 bd 64 f5 33 3e 73 66 9b be
       -0.065342754 -0.09035251 0.17574078 -0.303516
000350 d6 3f 92 be d3 29 9a 3d e5 6f 0d 3e ba ee 3f 3b
       -0.28564328 0.075275086 0.13812216 0.002928658
000360 e8 1a 80 bd c2 f1 97 be 75 37 85 be ce 9b df bd
       -0.06255132 -0.29676634 -0.26018873 -0.10918389
000370 64 c8 0c be bf 62 0f be 19 f4 73 3d ea 1f 11 3e
       -0.13748318 -0.14002512 0.05955896 0.1417233
000380 6c 31 a1 be f6 5f 89 be a3 3c 15 be 57 84 7b 3e
       -0.31483018 -0.26831025 -0.14573912 0.24562202
000390 fe 60 77 be 22 0c a8 be 26 79 87 be 91 f1 2d 3c
       -0.24158093 -0.32821757 -0.26459616 0.010616676
0003a0 b0 b6 91 be 67 97 36 3e bc c0 0f bf fc 40 92 be
       -0.28459692 0.17831193 -0.56153464 -0.28565204
0003b0 99 36 17 bf bf 72 51 3e 99 d0 97 3e 01 10 24 3e
       -0.59067684 0.20453928 0.29651335 0.1602173
0003c0 23 c0 3c 3e 2d ed 3b 3d bb 17 89 be 10 55 a3 bd
       0.1843267 0.045880485 -0.26775917 -0.07975209
0003d0 58 0f 15 3e 5b 99 8d bd 80 98 02 3c 8e 52 9d be
       0.14556634 -0.06914016 0.007970929 -0.30727047
0003e0 58 00 44 3e 58 bf 77 be fc a0 95 be 2b be 44 3c
       0.19140756 -0.24194086 -0.29224384 0.01200823
0003f0 70 37 95 3c 8a 5d d5 be 4c 8a eb bd 83 14 33 3e
       0.018214911 -0.41672927 -0.115009874 0.17488293

encodeur1.bias f4 [32]
000000 f4 3b 18 be ec 5a 9f be 68 d8 1d be 4a 5b 22 bf
       -0.1486662 -0.31124055 -0.15414584 -0.63420546
000010 61 8b 04 3f c1 ec de 3e 5a 2d b1 bd 2f 94 5d be
       0.51775175 0.43540004 -0.08651228 -0.21638559
000020 5d 21 b8 bd 34 44 ab bd d0 8e 79 bd 1f 6f 10 be
       -0.089907385 -0.08362618 -0.060927212 -0.1410489
000030 68 27 19 be 7e a0 fb bd d0 b7 09 bc 6c 52 83 bb
       -0.14956439 -0.12286471 -0.008405641 -0.004007628
000040 bc 95 45 bd 85 be 52 bd b2 44 54 be 4b 17 74 3d
       -0.0482385 -0.051451225 -0.2072933 0.059592526
000050 21 b0 b6 3e 77 31 29 be 6f 3d 52 be 76 ff 9c bd
       0.3568125 -0.16522776 -0.20531248 -0.07665913
000060 d4 50 d4 3e 40 15 c7 bd 13 3e 60 bd c7 3f 85 be
       0.41467917 -0.0972085 -0.0547467 -0.2602522
000070 0e 78 6a bd 20 15 74 be 59 75 6d be 0c 88 a8 be
       -0.0572434 -0.23836184 -0.23189296 -0.32916296

encodeur2.weight f4 [64, 32, 3, 3]
000000 1c 3a 63 bc 1a 2f 54 3c 2f 24 ac bc 53 6e 0f bd
       -0.013868835 0.012950683 -0.021013347 -0.035017323
000010 a1 90 29 3b df e5 64 3c f1 25 35 bd 6d 72 32 bd
       0.002587356 0.013970821 -0.044225637 -0.043566156
000020 e9 77 9b 3a 7c 62 7c bc c9 47 fc bc eb d3 0b 3d
       0.0011861298 -0.01540434 -0.030795949 0.034137648
000030 8d 22 32 bd 8f ce 1e 3d 25 ab d0 3c bf 54 18 3d
       -0.04348998 0.03877121 0.025472233 0.037190195
000040 aa c1 c4 bc 53 02 15 3d fa d1 34 bc 85 a6 4a 3b
       -0.024018127 0.03637917 -0.01103639 0.0030922007
000050 0e 9c 36 bc 1e f0 0a bd 07 90 85 3c 1b 2d a7 3c
       -0.011145605 -0.0339204 0.01630403 0.02040725
000060 83 ef 4b bd 3b 77 1d 3d 33 18 23 3d c2 e6 8f ba
       -0.049788963 0.038443785 0.039818 -0.0010978805
000070 f6 09 35 3c e4 8c 5a bd 16 9c 0b 3d 79 cd e4 bc
       0.011049738 -0.05335702 0.034084402 -0.027930008
000080 24 18 9a bd b5 a1 74 bd 55 01 a3 3c c8 7c aa bc
       -0.07524136 -0.05972453 0.019898096 -0.020811453
000090 c1 b1 ea bc 62 8e 10 bd 3e ab 27 3d cd 40 26 3d
       -0.028649213 -0.035292037 0.040934794 0.040589143
0000a0 51 93 3d 3c 35 2b ab 3c a3 a2 a3 3c 71 a6 1e 3d
       0.0115707675 0.020894626 0.019975012 0.03873295
0000b0 67 da 5a 3c 17 9c 71 bd 8a d8 88 3c 5f c7 2c 39
       0.013357735 -0.05898675 0.016704816 0.0001647747
0000c0 c8 8c 17 3d 4a ba 43 bd 3a 8c df bc 61 5f 6f bd
       0.036999494 -0.04778508 -0.027288545 -0.05844057
0000d0 19 f5 50 3d 3f 69 c0 3c 01 2d 96 3c 5b 10 34 bc
       0.051014993 0.023487685 0.018332006 -0.010990228
0000e0 58 d9 7e bd 3d 7f a5 bc 16 83 47 3c 75 82 9b bd
       -0.062218994 -0.020202274 0.012177249 -0.07593242
0000f0 29 4e 3c 3c 23 31 b1 3c d9 92 97 bd 62 00 64 3d
       0.011493244 0.021629876 -0.07401056 0.055664428
000100 72 03 68 3d 02 63 87 bc 19 8f 91 bc c6 08 b9 3c
       0.05664391 -0.016526703 -0.01776843 0.022587191
000110 30 67 21 bd b0 49 08 3d 6e 3b 6d 3d a9 18 33 bd
       -0.039405048 0.0332734 0.057918005 -0.04372469
000120 55 0a 46 3d c8 06 14 3d da 52 95 3b d3 c2 e0 bc
       0.048349697 0.03613928 0.004556996 -0.02743665
000130 46 7f 6f bd 23 ba 7d 3b 10 58 23 3d 16 5d 12 bc
       -0.058470987 0.0038715682 0.039878905 -0.008933326
000140 df 0d 05 3b 4e a4 bc bd 38 f5 a8 bd 00 01 79 3c
       0.0020302457 -0.09211026 -0.08249897 0.015197992
000150 bb ea 6a 3c 47 97 3c bd 49 94 55 bd 1c 51 21 bd
       0.014338191 -0.046042707 -0.05214337 -0.039383993
000160 b5 3e 49 3b 23 f4 96 bc 7e ca 54 bd 9a 98 b9 3b
       0.0030707542 -0.01842696 -0.051950924 0.0056639435
000170 9f a8 e0 bc d4 8a 68 bd 2c 09 72 bd b3 12 04 bd
       -0.027424155 -0.05677302 -0.05909078 -0.032244395
000180 e5 7e 34 3d 76 fa d4 bc de 6c 3f bd f6 d5 a4 bb
       0.04406633 -0.025998335 -0.046734683 -0.005030389
000190 63 1c 0a bc ea 57 a5 bc 7c d6 7f bd de 4f 06 3c
       -0.0084296195 -0.020183522 -0.062460408 0.008197753
0001a0 1d c9 ce bc ef 6c 13 bc 58 35 4e 3b 67 cb dd 3c
       -0.025242383 -0.00899814 0.00314649 0.027074529
0001b0 13 e2 9a bc c3 8c 38 3c 48 5b 95 bd 0b 4c b3 3a
       -0.018906629 0.011264029 -0.07292801 0.0013679279
0001c0 88 62 fe bc 4a 28 94 bd 05 15 49 bd 88 4f b5 b9
       -0.031052843 -0.07234247 -0.04909231 -0.00034582266
0001d0 44 49 62 bd 9e a9 55 3d a0 9b 6c bd 78 51 dc 3a
       -0.055245653 0.052163713 -0.057765603 0.0016808948
0001e0 79 eb e6 3c 2f 86 8c bc ba a7 6a bd 85 d6 50 3d
       0.028188454 -0.017153827 -0.057288863 0.05098583
0001f0 56 7d bb 3c 07 fe 1e bc 07 c7 c5 bd ba 5b ac bc
       0.022886913 -0.0097041195 -0.09657102 -0.021039832
000200 25 4a e0 bd 7d 71 f7 bc bc 2a 09 bd 28 2f b4 bd
       -0.10951642 -0.030205483 -0.03348802 -0.08798057
000210 6d be 20 bc bf a8 1e bd 87 39 65 bd 3e 20 85 bd
       -0.009811026 -0.038735148 -0.055963065 -0.0650029
000220 a3 ad 30 3d 88 48 24 3d 25 63 10 bc 64 6b a3 3a
       0.043134343 0.040108234 -0.0088127 0.0012467918
000230 32 8a 34 3d b9 5b 2e 3c a7 28 18 bd 18 07 3e bd
       0.044077106 0.010641986 -0.037148144 -0.046393484
000240 5a b4 05 bd 0a a7 16 bd 69 4a cf 3c 6d 4a 57 3d
       -0.0326427 -0.036780395 0.025304036 0.052561212
000250 9a ed bc bb 41 25 41 3d 0a 4c 09 bd 14 4c 1d bd
       -0.005765629 0.04715467 -0.033519782 -0.038402632
000260 92 cd 96 3c 1d 92 9c bc 17 0f 6d bc 2b 29 c6 bc
       0.01840857 -0.019112641 -0.01446893 -0.024189552
000270 58 3e 32 3b 7c af 2a 3d 37 13 d9 3c d1 a8 da bc
       0.0027197804 0.04167126 0.02649842 -0.026691826
000280 97 2a 66 bd 82 d9 32 bc f9 92 46 3d a1 d8 f0 3c
       -0.05619296 -0.010916116 0.048480008 0.029400172
000290 23 b5 55 3d c4 5a 2d bb 12 b9 0f bc 11 fe ef 3b
       0.0521747 -0.0026451806 -0.008772152 0.0073239882
0002a0 d0 ae 97 3c 1d 38 71 bd f0 d0 40 3c c7 25 dd bc
       0.018515974 -0.058891404 0.011768565 -0.026995553
0002b0 d3 8c f5 bc a1 32 9e bc 21 81 ff bc 3f f7 a1 bd
       -0.029974377 -0.019311251 -0.031189503 -0.079084866
0002c0 ff ee 7a bd 62 ec 4d bc 9c f1 11 bc 86 2a ca bd
       -0.06126308 -0.012568565 -0.008907702 -0.09871392
0002d0 1e 26 d6 bc ce ab 29 3c 5a 20 c8 bc 9f ae 4c bd
       -0.026141223 0.010355903 -0.024429489 -0.04997122
0002e0 b4 20 11 3d dc 5f b5 bc d8 ed 95 3c 6c 72 93 3b
       0.03543158 -0.022140436 0.01830189 0.004499724
0002f0 18 f7 4e 3d f8 6a ed bc 2a 4e 4c bd cf 31 33 3d
       0.050528616 -0.02898167 -0.04987923 0.043748673
000300 5a c6 8c bc 9d 62 ff ba 20 b3 58 bd 0f 2e 55 3d
       -0.017184425 -0.0019484345 -0.052905202 0.052045878
000310 d8 cb 64 3d e0 b4 04 3d bc 8f 9c bc 06 60 5b bd
       0.055858463 0.03239906 -0.019111507 -0.053558372
000320 98 c0 1c bd e3 3a 13 3b 51 1f de bc db d2 d0 3b
       -0.03826961 0.002246552 -0.027114542 0.006372792
000330 d0 8b 17 bd ee 9e 4e bc 0c 49 6e 3c 43 3d 17 bd
       -0.03699857 -0.012611134 0.014543783 -0.036923658
000340 f3 9e 22 3c b8 6e bf 3c 2a 9c e8 bc 2c 25 72 bd
       0.009925592 0.023368225 -0.028394777 -0.05911748
000350 fa 83 8b bd 6d 3d 68 bd 0c 69 4f bc 35 3a 7f bd
       -0.06812282 -0.056699205 -0.0126593225 -0.06231137
000360 ad 7e 30 3c af b6 f0 3b 8b 65 51 bc e6 3f 1a bd
       0.010772389 0.0073459963 -0.012780557 -0.037658595
000370 f2 2d d2 3c 75 3b ce bc bb 5e 4f bc 77 a8 0a 3d
       0.025656674 -0.025174836 -0.012656863 0.033852067
000380 34 ae bf bb 26 fa 4e bd 74 e0 68 bd 39 e4 d4 ba
       -0.005849624 -0.05053153 -0.05685468 -0.0016242332
000390 cd 9d c2 ba c7 bb 6b 3c 13 be e4 bc ac 08 4b 3d
       -0.0014848054 0.014388031 -0.027922666 0.049568817
0003a0 91 40 2e bd 59 ff 3f 3b 73 23 e3 bc 7b d3 cc 3c
       -0.042542044 0.0029296486 -0.027726864 0.025003185
0003b0 cf ef 8e bc fa e2 e7 bc 39 5a 5a ba 49 38 75 bd
       -0.017448334 -0.028306473 -0.0008329484 -0.05986813
0003c0 5a 81 d0 bc db 41 14 bc 57 01 7d 3b b7 aa f7 3c
       -0.025452305 -0.009048904 0.0038605535 0.03023277
0003d0 8c a9 6b 3d b7 9b 2c bd d1 e4 aa bb 7e 87 0e bd
       0.05753474 -0.04214069 -0.0052152653 -0.034797184
0003e0 a4 6d 21 bd 5d 11 21 3d 48 20 57 3d 2e 85 d5 3c
       -0.039411202 0.0393232 0.05252102 0.026064482
0003f0 35 15 c9 bc 7c 34 43 3d 68 c4 c2 bc 38 49 36 bd
       -0.024546245 0.047657475 -0.023775294 -0.04450342

encodeur2.bias f4 [64]
000000 76 29 80 bd 0d ca 1e be 69 78 b3 3d f9 b1 c2 bd
       -0.06257908 -0.15506764 0.08763201 -0.09506602
000010 07 0d b2 bd ea 68 c8 b8 98 1b f0 bc 91 b4 7c bd
       -0.08693891 -9.556285e-05 -0.029310033 -0.06169564
000020 a7 5a cb bc c6 94 3a 3e ed 03 c1 bd 4b a6 8c bd
       -0.0248235 0.18220815 -0.09424577 -0.06867655
000030 ea c5 18 3e 02 a3 c8 bc d5 cc 61 bd b1 6d bc bd
       0.14919248 -0.02449179 -0.055126984 -0.092006095
000040 c8 87 c0 bc ef 30 93 bd 3c 65 6c bd ad b7 e4 3c
       -0.023502246 -0.07187068 -0.057713732 0.027919615
000050 9f 60 9f 3c 15 0c 7b bd ed d9 26 be ce 1a b4 bd
       0.019455252 -0.06129082 -0.1629407 -0.08794175
000060 d0 dd 7d bd 91 ef d7 bd aa 52 46 bc 71 17 0d be
       -0.061979115 -0.105437405 -0.01210467 -0.13778473
000070 72 48 54 bd be 5c 9c bd a3 0a 2b ba 9f 7e e8 3d
       -0.0518269 -0.07634877 -0.00065247173 0.11352276
000080 c4 69 eb bd 8f ca 50 3e c7 6c 53 bd 57 11 b8 bd
       -0.114947826 0.2038977 -0.05161741 -0.08987682
000090 70 65 3a bd f6 99 a8 bd 68 0e ac bd 7c 7a 5c bc
       -0.045506895 -0.08232491 -0.08401185 -0.013456937
0000a0 3a 47 06 bb de e4 51 bd 5e 14 75 be 4e f3 f9 3c
       -0.0020489232 -0.051243655 -0.2393355 0.030511525
0000b0 7d 6b 64 3d 3b bc 7c bc 27 be 29 be 60 34 24 bd
       0.05576657 -0.015425737 -0.16576444 -0.04008901
0000c0 72 96 84 bd ce 3e f7 3d 5d e2 b8 3c 63 5d 6f bd
       -0.06474008 0.12072526 0.022568876 -0.05843867
0000d0 53 d7 55 bd 6f 72 45 bd 60 15 d3 3d 92 78 c4 bc
       -0.052207302 -0.048204836 0.10306811 -0.023983274
0000e0 c4 a9 a6 3d 14 5f a7 bd 23 d0 1a bd ad e9 bd bc
       0.08137849 -0.081724316 -0.03779615 -0.023182714
0000f0 a2 04 e3 bd 22 66 62 3c 93 3c a4 3b 0d be 92 bc
       -0.11084868 0.013818296 0.005012104 -0.017912889

encodeur3.weight f4 [128, 64, 3, 3]
000000 98 a6 8c bb 25 25 8f 3c 6e 13 a4 3c 09 3f 07 3d
       -0.0042923205 0.017473767 0.020028796 0.0330191
000010 69 e7 26 3a b8 18 dd 3c 6e ac 72 3b a3 0b ee bc
       0.000636688 0.026989326 0.0037029046 -0.029058283
000020 6f f7 17 bd 50 bd 0b 3d 9d 1d 85 3c 5a 99 8d bc
       -0.037101205 0.03411609 0.016249472 -0.017285038
000030 1e 39 19 bd a0 85 cc 3c c2 77 13 3b 54 4c 58 bb
       -0.037407987 0.024966061 0.00225018 -0.003300448
000040 4c 32 8e 3c 35 ef 91 bc d7 15 03 3d c1 bf 83 3c
       0.017357968 -0.017814258 0.03200325 0.016082646
000050 cf fb be 3c 06 96 65 3d 81 6f b1 ba 7b 22 8f bc
       0.023313431 0.056051277 -0.0013537259 -0.017472496
000060 0d aa c4 bc 3a bf c7 bc 2f 52 11 bd 2f 5a 92 ba
       -0.024006868 -0.024383176 -0.035478767 -0.0011165793
000070 d1 fd 08 3d 56 7f 00 bd dc 7d 4d bc 59 f9 27 3c
       0.033445183 -0.031371437 -0.012542214 0.01025232
000080 c8 77 f6 bc cb b2 67 bc 99 6d a4 bc b3 97 d0 3b
       -0.030086413 -0.014141749 -0.020071791 0.00636574
000090 9d be e6 3c 98 00 19 3d 96 12 b8 3c 31 ad 0c 3d
       0.028167063 0.037354082 0.0224698 0.034344856
0000a0 7a ff 2f bd b8 31 0c 3d 6b 5f 93 3c a6 3f e5 ba
       -0.04296825 0.034227103 0.017989835 -0.0017490282
0000b0 bd 67 b8 bc 82 dd e3 3b 43 6f 03 bd 95 87 c5 bc
       -0.022510404 0.006953896 -0.03208853 -0.024112502
0000c0 f8 ea fd bb 4a e6 d1 bc 75 dd 2e 3b 4f 9a 02 bc
       -0.0077489577 -0.025622506 0.0026682292 -0.00797136
0000d0 a9 75 cb 3b 5a 66 02 3d 60 df f7 bc 5c 18 45 3a
       0.0062090945 0.03183589 -0.03025788 0.00075185834
0000e0 7d 75 69 3c c2 48 0f 3d 93 53 ae bc 59 62 f3 bc
       0.014249203 0.034981497 -0.021280086 -0.029709982
0000f0 2d 34 0a bd 0e 00 a2 bc 7f 75 1b bb c9 7e 72 bc
       -0.033741165 -0.019775417 -0.0023721156 -0.014800736
000100 d1 b8 eb bb 18 af 7b bc 92 13 ac 3c c7 98 bd bc
       -0.0071936627 -0.01536157 0.021005426 -0.023144139
000110 6a fd 6a bc f4 e6 b4 3c 0d 1d 30 3b 5d ef b7 3c
       -0.014342645 0.022082783 0.0026872784 0.022453004
000120 9d 4b b4 3c ea 6c 12 bc 73 9e 96 3c bf 40 5a bc
       0.022008711 -0.0089371 0.018386101 -0.013321101
000130 73 3b ee 3c 14 19 80 3c 8b fb 8c 3c 15 0c d2 3c
       0.029081082 0.015636958 0.017209789 0.025640527
000140 28 9e fa bc 6e 4b 8a 3d a4 5e a5 3d 2f 91 8b 3d
       -0.030592993 0.06752668 0.08074692 0.06814801
000150 95 57 9d 3c fc aa 64 3d dc 59 15 3c 4c b6 1c bc
       0.019206801 0.055827126 0.009115662 -0.009564947
000160 ef fc 03 3c 5e 6c 36 bc 5b 94 4e bc a3 74 bf 38
       0.00805591 -0.011134235 -0.012608613 9.129315e-05
000170 93 08 31 bb 3a b7 b2 bc a4 52 41 bc 27 b1 d3 3c
       -0.0027013167 -0.021815885 -0.011799488 0.025841309
000180 da 3e a2 bc 31 e4 d0 3b e9 1f 0a bb c5 ed 09 3b
       -0.01980536 0.006374859 -0.002107615 0.0021046263
000190 cd 45 f7 3c 52 5a ce bb 74 e6 44 bc d8 1e 32 bd
       0.03018465 -0.006297388 -0.012017835 -0.043486446
0001a0 05 f8 9a bc 92 22 46 3d eb 8f b4 3c b7 ea b2 bc
       -0.018917093 0.048372813 0.022041282 -0.021840436
0001b0 38 a5 59 3d 54 c1 73 3c 8f 38 88 3d 2f ff cf 3c
       0.05313608 0.014877636 0.06651413 0.025390236
0001c0 23 01 26 3c 3d ce a1 3c c6 07 d9 b8 70 f0 ff 3c
       0.010132107 0.019751662 -0.00010348814 0.03124258
0001d0 e1 f3 08 bd fa 05 15 3d 80 72 81 3c 67 5e ea 3c
       -0.033435706 0.036382653 0.015801668 0.028609468
0001e0 85 c0 fa 3b 00 83 04 3c 4d 5e 6b bc 35 1e ba ba
       0.0076523446 0.008087873 -0.014365745 -0.0014199676
0001f0 41 41 a9 bc 88 1b ea ba 12 6d dc bc ea 46 1f bd
       -0.020660998 -0.0017860988 -0.026907478 -0.03888599
000200 73 1f 89 3c 7f 05 12 bd 36 b8 73 bc 59 fb b9 bb
       0.016738629 -0.035649773 -0.014875462 -0.005675715
000210 85 bc 5d 3c 8a d8 9f bb 8d 02 e5 3c 7c 3a 1b bb
       0.013533716 -0.0048781084 0.027955318 -0.0023685982
000220 d1 1c 1e bb 78 ff d7 bc a6 43 c0 3c fd 04 cd bc
       -0.0024126063 -0.026366934 0.023469757 -0.025026793
000230 d0 e4 2f bd 1f 4d 95 bc 69 53 0d bd 84 97 31 3c
       -0.042942822 -0.01822525 -0.034503374 0.010839347
000240 32 f4 d3 3c 49 59 fa bc 5f 12 bd 3c f5 e2 a7 3c
       0.025873277 -0.030560153 0.02308005 0.020493964
000250 43 6c db 3c 1a 4a 34 bd 2f 7c 2b bd 00 d8 10 bd
       0.026785022 -0.04401598 -0.041866478 -0.035362244
000260 b2 0e 32 3b 85 13 0b bd 9d ac d2 bc f7 9f b3 3c
       0.0027169404 -0.033954162 -0.025717074 0.021926863
000270 9b ca 00 bd b0 4b 50 bc 3d 28 10 bb 06 aa fa 39
       -0.03144322 -0.012713358 -0.002199664 0.00047810393
000280 a0 8f 83 bb 35 42 1f bd 70 11 92 3c 54 b4 a4 bc
       -0.004014924 -0.0388815 0.01783058 -0.020105518
000290 1d c8 a0 3c a7 68 2b bd 4c 3d 12 3d 40 3e bb bc
       0.019626671 -0.04184785 0.03570299 -0.022856832
0002a0 ba 87 da 3c 0c 3d e6 3c 9f 00 ad 3c 15 90 0c 3d
       0.026676048 0.028105281 0.02111846 0.034317095
0002b0 27 75 83 3c 64 36 53 3c c8 37 ab 3b 2a c1 25 3b
       0.016047074 0.012891386 0.0052251555 0.0025292137
0002c0 12 30 c0 3b 22 d1 9d 3c 6d c1 98 bc 70 e2 4d bd
       0.0058651054 0.019264761 -0.01864692 -0.050264776
0002d0 fd 08 31 bc ce 21 bf bc 8c 91 2f 3d ad 35 25 bc
       -0.010805366 -0.023331549 0.042863414 -0.010083598
0002e0 e8 78 20 bd 8f 6c 0a 3d 9a 25 1f bd 28 d3 4e 3c
       -0.039177805 0.033794936 -0.03885422 0.012623586
0002f0 85 06 07 3c c7 e0 2a bd d4 48 91 bc 4b a9 19 bd
       0.0082413005 -0.04171827 -0.017734922 -0.037514966
000300 7a 3b 2c bc be dd 19 ba 80 f9 ed bc 2e d9 ea bc
       -0.010512227 -0.0005869529 -0.029049635 -0.028668012
000310 49 8b 4e 3b 85 5a ea bb 17 99 17 bd 8f 74 d1 3b
       0.0031516126 -0.007151904 -0.037011232 0.0063920687
000320 72 a5 35 bd ff 36 14 3d 9e ae 17 3d b8 74 ab 3c
       -0.044347234 0.03618526 0.037031762 0.02092968
000330 f1 4e c0 3b 84 ab 15 3d d1 eb 91 3c 38 66 91 bb
       0.0058687855 0.036540523 0.017812641 -0.0044372343
000340 ab 34 be 3b 1b 7b 19 3d b9 7d b7 3c f0 b8 8a bc
       0.0058046184 0.03747092 0.022398816 -0.016933888
000350 f8 37 15 3d 9b ef 0e bb 05 bc 27 3c 3b 0f 0b 3d
       0.03643033 -0.0021810296 0.010237698 0.03395007
000360 a1 dc bf 3c 21 23 da bb d0 75 6c 3c 34 17 04 bd
       0.023420634 -0.0066570197 0.014432386 -0.03224869
000370 79 00 2d bd e9 7b 39 bd fc eb ff 3c d0 28 0f 3d
       -0.04223678 -0.045284186 0.031240456 0.03495103
000380 f4 55 cd 3b 24 c1 f1 ba 30 6b 06 bd b3 b4 0b bc
       0.00626635 -0.0018444401 -0.032817066 -0.008526969
000390 5f 70 05 bd e7 ba cb bc 2e c6 d8 bc 3c 3c ba bc
       -0.03257787 -0.024869395 -0.026461687 -0.0227338
0003a0 24 16 3d bd c6 c5 a4 3c 24 a4 5a 3c 88 21 0d 3c
       -0.046163693 0.020113837 0.013344798 0.0086139515
0003b0 2b a5 07 bd 66 8d ae bc 4d 1d 73 3c 7f 1b c6 3c
       -0.0331165 -0.021307658 0.014838529 0.024183033
0003c0 a2 b2 ac bc 44 c8 51 3b 8b 80 23 3d 93 e0 c6 3c
       -0.021081273 0.0032010237 0.03991751 0.024277007
0003d0 e0 cf 0f 3c 45 17 fd bc 91 b8 31 bd cc ce d7 bb
       0.008777589 -0.030894885 -0.043388907 -0.0065859314
0003e0 b7 58 30 bd 28 61 36 bd 3a 1e 6f bb 62 ad f6 3c
       -0.043053355 -0.04452625 -0.0036486522 0.030111972
0003f0 9e 43 8c bc 35 60 f6 3c e7 88 94 bc ed 94 b3 bb
       -0.017122086 0.030075172 -0.018131686 -0.0054804

encodeur3.bias f4 [128]
000000 92 2a 57 bd 94 65 d0 bc 20 19 15 3c 7d 27 9a 3b
       -0.052530833 -0.025439061 0.009100229 0.0047044144
000010 cc d2 b6 bb 61 af 89 3c 9d 71 81 38 da b2 4a 3c
       -0.005579328 0.01680726 6.1723615e-05 0.012371743
000020 d9 b1 3a 3c 39 b4 6f 3c 2b fa 63 3b b3 49 b3 3a
       0.011394941 0.014630371 0.0034786563 0.001367858
000030 6b 86 5b 3d 2c bd 03 bc dd 03 6b 3c d1 cf 94 bb
       0.053594988 -0.008040708 0.014344183 -0.004541375
000040 b5 28 d3 bc c1 cf 3b 3c cb f5 05 3c b1 da 35 bc
       -0.025776247 0.011463107 0.008176277 -0.011099503
000050 3e 2f 15 bc 12 16 d9 3b 43 d0 1d 3c 6b 14 6b 3d
       -0.009105502 0.0066249454 0.009632173 0.05739252
000060 a9 e5 cd 3c dc 1a e7 3b 82 dc 1b 3c 24 d3 ca bc
       0.025133925 0.0070527624 0.009513022 -0.024758883
000070 dc f7 2b 3c bd af a0 3a 26 3e d9 3c e8 e5 d2 3a
       0.010496106 0.0012259405 0.026518892 0.0016090246
000080 f5 c7 13 bd 20 2d ab bc 02 b9 00 bb 80 33 30 bd
       -0.036079366 -0.02089554 -0.0019641523 -0.043017864
000090 10 96 47 3d a4 2f 3a 3c 9d 34 2b bb 9f da 91 3c
       0.048727095 0.0113638975 -0.002612389 0.017804442
0000a0 d8 32 de bc 3f a6 99 bc d0 b9 55 3b 04 89 cd bb
       -0.027123854 -0.01875603 0.0032611974 -0.006272437
0000b0 47 b8 0c 3d 27 e4 47 3c cf a6 93 3c b4 05 f4 bb
       0.034355428 0.012200392 0.018023876 -0.007446969
0000c0 b5 60 f1 3b 53 94 aa bc bd 52 5e 3b 2f 32 df bc
       0.0073662647 -0.02082268 0.0033923828 -0.02724561
0000d0 6a 97 f7 ba ff 26 1a bc 13 05 96 b9 be 59 21 bd
       -0.0018889729 -0.009408711 -0.0002861401 -0.039392225
0000e0 0c fe 48 bd 8c 61 21 3d 04 61 45 bc 55 d6 ff bb
       -0.049070403 0.03939967 -0.012047056 -0.007807533
0000f0 aa 2f c2 bb 57 fd 17 bd 4e 38 09 3d 76 0c c6 bc
       -0.005926092 -0.037106838 0.033500962 -0.024175864
000100 dc c3 2e ba 10 da b0 3c c5 01 01 bc 64 b2 41 bd
       -0.00066667586 0.021588355 -0.007873957 -0.047289267
000110 ba d9 eb 3b 02 45 04 3d dc 9d 31 3c bb 4f 11 bd
       0.007197586 0.032292373 0.010840859 -0.035476428
000120 da 6d a1 bc c8 23 ad 3c ae 4c df 3a 3a 0a a0 3b
       -0.019705702 0.021135226 0.0017036402 0.0048840316
000130 d5 8f a1 3c c2 af 18 3c d0 eb e3 bc a3 ca e9 bc
       0.019721905 0.009319248 -0.027822405 -0.028539008
000140 9c fd 89 bd db d5 e4 b9 1a 0d 40 3c ea 16 4f 38
       -0.06737825 -0.00043646884 0.011721874 4.9373986e-05
000150 37 79 2a 3d f2 0c 04 bd 64 89 07 39 f0 87 e2 3c
       0.041619506 -0.032238908 0.00012925785 0.02765271
000160 44 a0 ce 3c ff c9 85 bc 3c 70 f4 bc 5d 0f a7 bb
       0.025222905 -0.01633167 -0.029838674 -0.005098267
000170 24 95 6b 39 96 fb 8d 3c 86 3e b3 3c 1c ca 86 3b
       0.00022466906 0.01733188 0.0218804 0.004113449
000180 01 b4 e9 bb a0 24 af bc 6f 9f d6 bc b0 b4 60 bc
       -0.007132054 -0.021379769 -0.02619907 -0.013714954
000190 4c ab 28 bc c0 80 d7 3c 0e c3 25 3d ab 01 03 3d
       -0.010294747 0.02630651 0.04046922 0.031984013
0001a0 41 f6 6b bd 31 8d 7b bb e6 a6 24 bc 91 eb 6f 3c
       -0.057607893 -0.0038383717 -0.010049557 0.014643566
0001b0 28 02 3f 3d 02 c5 0f bd b7 ec 51 3d 11 6b c9 bc
       0.046632916 -0.03509999 0.05125114 -0.024587186
0001c0 bc 73 9f bb 04 e7 96 bc a9 41 0f 3d 29 0e 1f bd
       -0.0048660915 -0.018420704 0.034974728 -0.038831864
0001d0 ad 2a 38 bd 86 46 ce bc 23 e8 aa 3c c2 98 3b 3d
       -0.044962574 -0.025180113 0.020862645 0.045799978
0001e0 7a b7 94 38 0d a9 15 3d ca a6 bf 3c 8e c4 c8 39
       7.091365e-05 0.036538173 0.02339496 0.00038293417
0001f0 94 c8 5f bc a2 e3 67 bb 06 cb 1d bc 04 5d 2d bd
       -0.013658661 -0.0035383482 -0.009630924 -0.042325035

decodeur1.weight f4 [128, 64, 3, 3]
000000 d7 5c 35 bd 86 04 d4 bc b7 8e 2a bd af 95 20 3c
       -0.044277992 -0.025881063 -0.04164001 0.009801312
000010 4e 45 2b bd d0 b6 e9 bc 2a e9 2e 3b bb 40 d0 ba
       -0.04181414 -0.028529555 0.002668927 -0.0015888432
000020 b7 c2 49 3d 3b 2a 26 bd 79 87 dd bc b1 e7 94 bc
       0.04925796 -0.040567618 -0.027042137 -0.018176885
000030 5a 05 8a bc 78 ab 82 bc c7 5f 5f 3b fc 58 c1 bb
       -0.016848255 -0.015950903 0.0034084187 -0.0059005003
000040 a8 73 22 bd b2 e4 2f bc 34 90 06 ba 29 3c 2b bb
       -0.03966108 -0.010735678 -0.0005133182 -0.0026128388
000050 14 9a 77 3b a8 3e 27 bd d6 fd 98 3b 4c e1 ed bc
       0.0037781047 -0.040831238 0.0046689315 -0.029038094
000060 bc 23 93 bc 4f de 26 3d 17 d1 81 bb 9e ca 03 3d
       -0.017961375 0.040739354 -0.003961693 0.032175653
000070 e0 d9 55 3c ed ba da bc 8d 26 48 3d 2e e3 af bb
       0.013052434 -0.026700461 0.04886489 -0.005367658
000080 7e 21 cb 3c 0a 13 21 bd 08 40 1c 3d 45 3c 3b bb
       0.024796244 -0.039324798 0.038147002 -0.002856986
000090 ad 90 27 3d 6d 81 47 3d dc 95 42 bb b4 3a c0 3b
       0.040909458 0.048707414 -0.0029691374 0.005866373
0000a0 e3 88 83 bb 6f f4 73 bb df 38 50 bd 00 0c 42 3c
       -0.004014121 -0.0037224551 -0.050835487 0.011843681
0000b0 1e dc 78 bd 54 26 01 3d 59 13 18 bd cf 5f da 3c
       -0.060756795 0.031530693 -0.037127826 0.026657013
0000c0 a3 a6 52 3c ad 45 7e bc 82 a8 11 bb f4 cd e7 bc
       0.012857112 -0.015519542 -0.0022225683 -0.028296448
0000d0 f9 f6 ef 3c 24 1b 41 bd 9c 20 80 bc 5d 5f 23 3d
       0.02929257 -0.047145024 -0.01564055 0.039885867
0000e0 36 3a 58 3c a9 02 0e bd d6 d1 51 bc c5 8a 05 3d
       0.013197472 -0.034670506 -0.012806376 0.032603044
0000f0 70 48 17 bc 1b ad 9e bc bd 61 19 3d 5b 50 62 3b
       -0.009233579 -0.019369652 0.037446726 0.003453276
000100 63 00 82 b8 5d 8b 95 bb 97 b5 22 3d e5 b7 14 3d
       -6.198955e-05 -0.0045637325 0.03972396 0.036308188
000110 36 69 ac bc d5 4f de 3c bd f9 1e bc e8 c2 d5 3c
       -0.021046262 0.027137676 -0.009703097 0.026093915
000120 9d 0d b7 3b d9 9b b5 bc fb 3d 06 3c 67 15 48 3b
       0.0055863396 -0.02216904 0.008193488 0.0030530335
000130 bd 33 23 bc 4e a5 01 bc db 42 39 bd cc 32 c6 bc
       -0.009961066 -0.007912947 -0.045229774 -0.024194144
000140 f4 5f 20 bd 87 61 f0 bc 23 a2 da bc db 64 88 bc
       -0.039154008 -0.02934338 -0.026688641 -0.016649654
000150 54 f3 2a bd 7e 25 01 3c 65 98 fb ba 03 29 04 3d
       -0.041735962 0.007882474 -0.0019195197 0.032265674
000160 ee e8 d3 bb af ff 27 3d d9 c7 1b 3c fe 13 d0 bc
       -0.0064669764 0.041015323 0.009508097 -0.025400158
000170 c4 d2 00 bd f3 ec b1 bb a9 49 27 3d 82 2c 1e bc
       -0.031451 -0.005429858 0.040841732 -0.009654166
000180 ec 3f a0 bc a8 bd c6 b9 a0 7c 2f bb 8b 42 c4 bb
       -0.01956173 -0.00037906808 -0.0026777163 -0.005989378
000190 f8 f4 94 bc b4 a6 ee bc 62 dc ad ba 56 10 6a 3b
       -0.018183216 -0.029132225 -0.0013264532 0.0035715303
0001a0 dc 2c 07 bd 01 5a b3 3b e0 20 e5 3b a7 cd fe bc
       -0.033001766 0.005473376 0.0069924444 -0.031103922
0001b0 e2 39 0f 3c 61 a1 e3 3b 66 33 7e 3c 1b 71 3d 3c
       0.008741828 0.006946728 0.015515184 0.011562611
0001c0 33 33 fe 3c 40 44 23 3d 26 85 ff bc f6 54 ce 3c
       0.031030273 0.03986001 -0.03119142 0.025186997
0001d0 ab 8d 58 3c 84 8d 00 bd d8 28 0b bd dc 07 2e bd
       0.01321737 -0.03138496 -0.0339745 -0.042487964
0001e0 b3 1d 2d bd 4b 42 de 3b 3f d8 f9 3b 78 a6 88 3c
       -0.04226465 0.006782805 0.0076246555 0.016680941
0001f0 b7 31 c1 3c 94 f7 06 bd a8 7d 16 bd ab a9 cc 3c
       0.023583276 -0.032950953 -0.03674093 0.024983248
000200 a9 bb 3a bd 25 f9 9b 3a 97 8a 36 bd 16 6a 17 bd
       -0.045589123 0.0011899812 -0.044565763 -0.036966406
000210 ec 63 1f 3d a0 ef e4 3c c8 67 9f 3c d2 08 9e 3c
       0.038913652 0.027946293 0.019458666 0.019291315
000220 c5 de b0 3c 05 f5 f9 bb 7a ce 27 bc 07 98 a1 bc
       0.0215906 -0.0076280856 -0.010242099 -0.019725813
000230 65 9d 15 3d a8 6e 06 3d 3c dc f2 bc ba e4 f9 3c
       0.036527056 0.032820374 -0.029646032 0.030504573
000240 87 46 d3 3c c2 c0 93 bc ef 7c 38 3d a7 8b 50 bd
       0.025790466 -0.01803625 0.04504102 -0.050914433
000250 81 a9 48 bd 88 9b 7b 3c 00 16 0a bd f6 97 a9 3c
       -0.048989777 0.015356906 -0.033712387 0.020702343
000260 23 b5 0b 3d fd 03 05 3d 73 90 2f bc b3 fc 14 3c
       0.034108292 0.032474507 -0.010715592 0.009093451
000270 06 b5 0b 3d 0c 2f 06 3d 5c 39 24 bd ce d6 84 bc
       0.034108184 0.03275971 -0.040093765 -0.016215708
000280 12 0a f4 bc 6a 85 19 bd 51 08 08 bc 3d 22 0a bd
       -0.029789958 -0.03748075 -0.008302764 -0.03372406
000290 22 02 65 3c fa 23 3f bc bd 2a 2c 3d 09 62 1f 3c
       0.013977559 -0.011666292 0.042032946 0.009727963
0002a0 a3 5e 11 bd 5b ef 64 3b 4e 2f 14 3d 99 1a 82 bc
       -0.035490643 0.0034932706 0.036177926 -0.015881823
0002b0 5c b5 cc 3c ab fe 71 bc 96 59 8a bb 09 5c 95 3c
       0.024988823 -0.01477019 -0.0042221053 0.018232362
0002c0 9b 7f 7f bc 11 28 dd bc 73 4d b5 bb d3 41 ad bc
       -0.015594388 -0.026996644 -0.0055329143 -0.021149551
0002d0 1b b6 15 3d 63 e5 58 3c 4b bb 3e bc cc 4e df bc
       0.036550622 0.013238284 -0.011641334 -0.027259253
0002e0 c9 83 e6 bb 1c 78 33 bc 52 dc 0d bc 28 71 09 bc
       -0.007034753 -0.010953929 -0.0086584855 -0.008388795
0002f0 11 e5 08 3d 83 1c 8e bc 30 5b 48 3c 99 07 44 bb
       0.03342158 -0.01734758 0.012228772 -0.0029911755
000300 e7 89 89 3c 31 75 6e bc 2f 44 0a 3d 9c 8e 84 bc
       0.01678939 -0.014554308 0.03375643 -0.016181283
000310 ef ba 3a 3c 5d 9d 80 3c 9e aa 86 bc 1d d8 ae 3c
       0.0113971075 0.015700037 -0.016438778 0.021343285
000320 22 69 55 bc c6 df 0d bd a6 1e 12 bd bc c3 3b bd
       -0.013025554 -0.034637235 -0.03567376 -0.045840964
000330 89 05 6e bc c7 a9 37 bb 68 e1 f1 3c f6 de 56 3c
       -0.014527687 -0.002802478 0.029526427 0.0131146815
000340 ac 62 2e 3b fb 12 9b 3c 14 f8 0a 3c 0b 18 ea 3c
       0.0026609106 0.018929949 0.008481998 0.028575918
000350 20 1f 83 bc 72 1b 0f bd 5c cb a5 3c c3 01 68 bc
       -0.016006052 -0.034938283 0.02023857 -0.014160576
000360 dc e6 d8 3a 9d dc 39 bd 17 a8 49 bd c8 9a 1c bd
       0.0016548294 -0.04537641 -0.04923257 -0.03823355
000370 f1 fa c1 3c 56 26 23 bd d6 43 1f bd 86 a1 27 3d
       0.023679228 -0.039831482 -0.038883053 0.040925525
000380 e2 0a a5 3b bf 80 3a bc c1 4b ab bc 4e b6 01 bb
       0.0050366977 -0.0113832345 -0.020910146 -0.00197925
000390 0b 22 04 3d 31 cb e1 3c d5 d9 e7 3c 54 74 ba bc
       0.03225903 0.02756271 0.028302113 -0.022760548
0003a0 d5 54 2f bc 39 25 1b 3d a1 f5 49 3c 52 12 16 3d
       -0.010701378 0.037877295 0.012326629 0.036638565
0003b0 e9 66 2a 3d c1 02 28 3d d5 5e d8 3c a2 0d ef b9
       0.04160205 0.04101825 0.026412407 -0.0004559579
0003c0 e7 fd 99 3c d1 88 9b bc 40 76 61 3b 49 c3 c9 bc
       0.018797828 -0.018986138 0.0034402758 -0.024629252
0003d0 d8 b3 71 bd e0 0e c2 3c 19 64 90 ba 62 da 60 bd
       -0.059009403 0.023688734 -0.001101616 -0.054895766
0003e0 df 70 e9 3b 10 bb 05 bd 09 17 61 bc c7 0a 35 3d
       0.007124051 -0.0326491 -0.013738402 0.04419973
0003f0 43 b1 1f bc 96 9b c6 bb a9 5c 2e bc 22 33 ac 3c
       -0.009746852 -0.0060610278 -0.010642209 0.021020476

decodeur1.bias f4 [64]
000000 84 c6 22 3e 88 39 58 bd 3c c0 98 bd a0 6d 75 bd
       0.1589604 -0.05278924 -0.07458541 -0.059919
000010 0b 2a aa bc 10 39 60 3c d0 89 e9 bc 77 3c 81 bd
       -0.020772 0.01368548 -0.028508097 -0.06310361
000020 5d 49 c0 3c 90 f1 5d 3e 77 6f b5 bd 7d a7 cf bc
       0.023472482 0.2167418 -0.08859151 -0.02534842
000030 22 93 c5 3d e5 d5 5e 3e 09 71 e9 3c a1 7d 26 bd
       0.09647204 0.21761282 0.028496282 -0.040647153
000040 ea 32 13 3e 7e 22 7b bc e1 4d 75 bc de cc 73 bd
       0.14374891 -0.015328048 -0.014972181 -0.05952155
000050 ab 03 52 bc d1 aa d2 3c 86 4d 28 3c 44 ce 88 bd
       -0.012818257 0.025716217 0.010272389 -0.06679967
000060 42 4e 4c bc 5d 6d e7 bd 77 89 30 3d 50 2f 91 3e
       -0.01246983 -0.11300156 0.043099847 0.2835641
000070 7f f5 19 bd be 7c ea 3d 13 c1 2c bd 0e d2 64 bc
       -0.03758764 0.11449574 -0.042176317 -0.013966097
000080 d8 a0 08 bd 88 1d 01 3e 9a 16 0d bd 75 96 cc bd
       -0.033356518 0.12608922 -0.034445383 -0.09989635
000090 41 f9 65 bd d9 cd 20 bd db 7a ea bc eb a7 42 38
       -0.05614591 -0.03925881 -0.028623035 4.640959e-05
0000a0 be 3c 12 bd f9 63 59 bd 95 bb 9b bb 74 89 3f 3e
       -0.03570246 -0.053073857 -0.004752586 0.18704778
0000b0 16 e1 41 bd f0 7c 1d bd 7f c4 16 3d 16 02 26 bd
       -0.0473338 -0.038449228 0.036808487 -0.040529333
0000c0 59 af 03 3e 7e e4 a6 bd 88 61 c6 bc 2e 8b ab bc
       0.12859859 -0.0814905 -0.024216428 -0.02094039
0000d0 f2 03 a9 bd 33 3a c6 3d 88 15 8d 3c 36 07 cb bc
       -0.08252706 0.09679069 0.017222181 -0.024783712
0000e0 97 ec cd 3c 32 66 56 bd ab 69 86 bd 61 fb db 3d
       0.025137229 -0.052343555 -0.06563123 0.10741306
0000f0 b7 c2 e9 3a d9 71 86 3e 0d 6f 1e be b7 7c 32 bd
       0.0017834519 0.26258734 -0.1547205 -0.04357597

decodeur2.weight f4 [64, 32, 3, 3]
000000 7c d3 c9 3c 5a 2a 22 3d 6b bc 1e 3d 26 f3 88 bc
       0.024636976 0.03959117 0.038753908 -0.016717505
000010 aa 88 b3 bc c7 03 59 3d 2d 2c 81 bd 67 07 0c bc
       -0.021915752 0.052982118 -0.06307254 -0.008546687
000020 0a 27 0a bd 7d 17 80 3b c6 dc 6e bd 71 97 90 3c
       -0.033728637 0.00390905 -0.058316015 0.017650338
000030 61 d9 70 3c d4 3e d6 3c e8 3a 6a bd 45 b8 35 3d
       0.014700265 0.026153006 -0.057185084 0.044365186
000040 98 a3 48 3d 93 ea e4 bc ce 65 6a 3d cc c5 5e bd
       0.04898414 -0.027943885 0.057225995 -0.054387853
000050 cb da 4e bb 64 c3 44 bc 15 c5 60 bb 8a d9 73 bd
       -0.0031563516 -0.012009475 -0.0034297158 -0.059533633
000060 57 a3 79 3d 24 dd ed 3c 9f 79 28 3d b9 51 4b 3c
       0.06094679 0.029036112 0.041131612 0.012409621
000070 b6 19 d4 b9 b1 b0 0f 3d 55 17 8f bd b7 b0 85 bd
       -0.00040454947 0.035080615 -0.06986872 -0.06527846
000080 15 25 5f bd ed ca 70 bc 03 4d b9 bc bc 2b 01 3d
       -0.054478724 -0.014696819 -0.02261973 0.03153585
000090 3c 04 42 bd 69 14 a2 3c b8 d8 89 3c 23 ab 4a 3c
       -0.04736732 0.019785123 0.016826972 0.012369904
0000a0 7f e5 8f 3c 58 d2 44 3d 3c f0 6a bd 61 13 cb b7
       0.017565487 0.048052162 -0.05735801 -2.420851e-05
0000b0 12 e8 0d 3d ee cb 6a bd 2d 53 8d bc 26 73 02 bd
       0.034645148 -0.05732339 -0.017251575 -0.031848095
0000c0 91 ce 9e 3c e4 9f f6 3c b6 d4 e4 bc 3a e3 fe bc
       0.019385608 0.030105539 -0.02793346 -0.03111421
0000d0 a7 4e 42 bd 3b de 16 bd d5 c9 fa bb f8 50 93 bb
       -0.04743829 -0.03683303 -0.007653455 -0.004495736
0000e0 c4 d6 2d 3d 6f cf 5a 3d 98 2f 65 bd 88 ef 1e bd
       0.042441145 0.05342048 -0.055953592 -0.038802654
0000f0 ec b2 57 3d 54 65 c6 bc 99 ec 64 3d 64 d1 62 3d
       0.052660868 -0.024218239 0.0558897 0.05537547
000100 93 2b 43 3d 6f 97 5c bd 0e 0d 23 3d 3b 2d 72 bc
       0.047648977 -0.053855356 0.03980737 -0.014781292
000110 ed f9 19 3d e7 e4 9d 3d a0 c9 5a bb 40 af 2c bd
       0.037591863 0.07709675 -0.0033384338 -0.04215932
000120 a8 5f 99 bc 91 f0 be 3b 75 75 0e 3d a7 f7 09 3d
       -0.01872237 0.0058270176 0.034779985 0.033683445
000130 d1 9d 38 bd 39 41 fe ba d7 45 37 bd 8e 51 e1 3c
       -0.04507238 -0.00193981 -0.04474434 0.027504709
000140 61 6b 1b 3c d0 bf 29 3b ca eb 66 3d 5e 14 04 bd
       0.00948605 0.0025901683 0.05637721 -0.032245986
000150 37 e0 0c bd aa da 85 3c db 62 1d bd c7 48 1f bd
       -0.034393515 0.016339619 -0.038424354 -0.038887765
000160 9e de 48 3d 7e 29 52 bd a4 fd 9d bc 06 ef b2 bb
       0.04904043 -0.0513091 -0.019285984 -0.0054606227
000170 c1 a6 5e bd a1 90 ed 3c c6 a3 c6 bc b4 90 fe 3c
       -0.054358248 0.028999628 -0.024248015 0.03107486
000180 09 ce 3f 3d a1 9a db 3c 45 2f 7a bc 50 60 08 3d
       0.04682735 0.026807131 -0.015270059 0.033294976
000190 9f 2e 3d 3d da da 11 3c 78 02 82 3b 95 0a 80 3b
       0.04618704 0.008902276 0.0039675795 0.0039075115
0001a0 22 73 54 3c c4 61 b3 bd 07 ff 13 bd fe 1c 71 bd
       0.012966903 -0.08758882 -0.036131885 -0.05886554
0001b0 db be ef 3c 35 04 de 3c e2 dd 03 bd 40 93 21 bd
       0.029265812 0.027101615 -0.032194026 -0.03944707
0001c0 e0 7c c8 b7 23 46 19 3c 40 71 61 bd 4b 2d 3c bd
       -2.3900007e-05 0.009355101 -0.055039644 -0.045941632
0001d0 12 55 75 bd 5e 08 7c bd 67 cf eb bc 76 e0 8a bd
       -0.059895582 -0.061531417 -0.02878542 -0.06781094
0001e0 0c e0 1e bc 3a a3 1d 3d 73 04 04 bd 0d 56 09 bd
       -0.009696972 0.038485743 -0.032230806 -0.03352933
0001f0 75 02 9b ba a8 61 ab 3d a7 d2 85 3c 65 ef 05 bd
       -0.0011826294 0.08368236 0.016335798 -0.032699008
000200 12 fd 28 3d 6f 16 67 bd 8e b8 f0 3b 6a e0 b9 3c
       0.04125697 -0.05641788 0.0073462194 0.022690017
000210 f6 7d 9e bd df 56 4b bd 4a 94 8d bb 94 7b 20 3d
       -0.07738869 -0.049643394 -0.004320656 0.039180353
000220 5d 80 18 3c 11 f6 94 3c 60 1d da 3b 54 0d ac 3c
       0.009307948 0.01818374 0.006656334 0.02100245
000230 48 b3 99 bc 7e 5d 3a 3c 14 0e 52 bd f1 32 d0 ba
       -0.018762246 0.011374829 -0.051282957 -0.0015884322
000240 0e f7 a5 bd cb 0e 0d 3b 51 f0 c0 3d 57 2d bf bd
       -0.081037626 0.002152371 0.09420837 -0.0933482
000250 bf 43 6f bc 8a ff 3f 3d 21 89 ef bd ce 79 af bd
       -0.014603554 0.04687456 -0.11696077 -0.08568154
000260 53 d0 71 3d 4d 96 a5 3c 74 c9 70 3c 8c 74 d1 bc
       0.059036564 0.02021327 0.014696468 -0.02556827
000270 5c f5 2d 3d 16 52 1b 3d 8f 05 c3 bb 89 e3 3c bd
       0.04247032 0.03792008 -0.0059515904 -0.046115432
000280 f3 16 0e bd 2b 84 1f bd 5d 04 a2 3b f4 0e 31 3d
       -0.034689855 -0.038944405 0.004944368 0.04322715
000290 16 af 15 bd 19 8f ce bb bb 90 88 3a af f9 55 3d
       -0.036543928 -0.0063036797 0.001041911 0.05224007
0002a0 0a e2 48 bd a1 1e 0d bd 3a e6 c2 bc 2d 91 42 3c
       -0.049043693 -0.034453038 -0.023791421 0.011875433
0002b0 0d 54 a6 3c ef 32 34 3d b8 02 6f bd 6a 37 0a bd
       0.02030375 0.043993887 -0.058352202 -0.033744253
0002c0 d4 1f e5 bb 30 1e 17 3d 34 f5 02 bd fe 23 3b 3d
       -0.0069923196 0.036894023 -0.031972125 0.04568862
0002d0 a5 4f df 3d d6 b8 6b 3c 7c 86 ab 3b 05 e9 cd 3d
       0.10903863 0.01438733 0.0052345376 0.100542106
0002e0 af 83 38 3d a2 c2 bb bb 6c c4 f0 3c a4 32 77 3d
       0.04504746 -0.005729989 0.029390536 0.06035103
0002f0 93 8d 23 bd 6e f1 1d 3d 00 90 8a 3d 81 06 d1 3c
       -0.039929938 0.038560323 0.06765747 0.025515797
000300 3b af bb 3d d4 0b b2 3d 63 5d 49 3d 51 d5 b4 bc
       0.09164282 0.08693662 0.049161326 -0.022074373
000310 ad 85 02 bc 33 99 80 bc 6b 24 bd bc b7 36 06 bd
       -0.007966441 -0.015698051 -0.023088655 -0.032767024
000320 db 02 fd 3b 4c a2 11 bd 9b 5e 53 bd 1a 70 a3 ba
       0.0077212877 -0.03555517 -0.051603895 -0.0012469322
000330 9a a4 e3 bb 1f fe 41 bd 0b 61 33 3d 9e 02 db bc
       -0.0069471123 -0.04736149 0.04379372 -0.026734646
000340 66 8d 8c 3c ef c3 39 3d 20 b1 23 bc 51 0c 13 bd
       0.017157268 0.045352872 -0.00999096 -0.035900418
000350 c2 d2 9b bb 7f 75 0a bd 8b c0 81 bb 2d a0 37 bd
       -0.004755349 -0.03380346 -0.0039597205 -0.04483049
000360 7f 27 9d bd 3f 0e 82 bd af f6 8e bd 0a e6 3e bd
       -0.07673549 -0.063503735 -0.06980645 -0.0466061
000370 6e 62 ae 3d 24 2d c7 3d 36 1d 5c 3d 03 e8 d9 3d
       0.08514868 0.09725407 0.053738795 0.10639956
000380 be 79 91 3d a4 3f ab 3d 18 c0 22 3d 78 59 92 3d
       0.071032986 0.08361748 0.039733976 0.07145971
000390 15 f7 61 bd a5 d2 c6 b9 b1 90 a5 3b ce 4f e2 bb
       -0.055167276 -0.00037922445 0.005052649 -0.006906486
0003a0 b1 6b 85 3c 3b 5d 98 bd ca 46 e7 3c ab 91 de 3c
       0.016286703 -0.07439657 0.028231997 0.02716907
0003b0 e7 c4 b9 bb 47 e8 a7 bc 64 96 6a bd 73 20 75 bc
       -0.0056692245 -0.0204965 -0.05727233 -0.01496135
0003c0 31 eb 82 bd 46 5a 38 3d 3e c6 7e bd f6 bf f1 b8
       -0.063925155 0.045007966 -0.062200777 -0.00011527531
0003d0 ef ea 80 3d c0 5b b6 3d 98 b6 b5 bd 9f f2 2d 3d
       0.0629481 0.08904219 -0.088727176 0.04246771
0003e0 59 06 a0 3d c1 03 a7 bd 05 b1 65 bd 53 05 25 bd
       0.07813711 -0.08155013 -0.056077022 -0.04028828
0003f0 ac f3 44 bc d1 3d af bb 08 7e 23 bc bc 0c 2b 3d
       -0.0120209865 -0.0053479453 -0.009978779 0.04176019

decodeur2.bias f4 [32]
000000 07 fa 8b 3d 66 ab 8a bd 3a 99 ad 3c e7 39 38 3d
       0.06834798 -0.06770973 0.021191228 0.044977095
000010 ad 57 d7 bd 85 0b 81 bd 9b 69 84 bd 5c 6a 5c 3c
       -0.1051477 -0.06301025 -0.06465455 0.013453092
000020 fd 6b c8 be 57 9b 70 3c 9e 50 f0 bc 03 1c fc 3e
       -0.3914489 0.014685473 -0.029335316 0.4924012
000030 33 fb a3 3e 98 68 a7 3e 8b 96 5a 3d da bd 77 bd
       0.32027587 0.32696986 0.053366225 -0.06048379
000040 36 80 99 3d 83 17 5c bd 00 e0 fc bd 42 56 50 bd
       0.074951574 -0.05373336 -0.12347412 -0.05086351
000050 18 bf 44 3f a3 0c b4 3e 41 75 f6 3c 18 b6 2c be
       0.76854086 0.3516589 0.030085208 -0.16866338
000060 ca cc 92 3e 13 32 8c 3e a5 c5 72 be c5 72 b3 3d
       0.28671867 0.27381954 -0.23708208 0.08762125
000070 c3 52 2a bd 03 a7 20 bd 44 1c d4 3e 8c 0f 28 3f
       -0.041582834 -0.039221775 0.41427815 0.6564872
