Projets/[MachineLearning&Signal]Detection_contours/weights.pt (torch, 744577 bytes, 11 tensors)

encoder.0.weight f4 [32, 1, 3, 3]
-0.09959747 -0.42160478 -0.078968555 0.017740773 -0.050664034 0.2394559 0.12866555 0.062002003
-0.057150397 -0.09050556 -0.2818225 -0.03547442 -0.0015503963 0.18593931 -0.12892818 -0.32129344
0.21003768 -0.1444314 -0.057320308 0.066086456 0.16155274 -0.11824237 0.29238918 0.0049103107
-0.3338075 -0.013821851 -0.3984673 0.007781774 0.023950407 -0.30336756 -0.07948785 -0.3287607
-0.17607687 -0.2942038 -0.13645473 0.19170614 -0.06820888 0.110641405 -0.11570809 0.040446527
0.6820184 0.43924603 0.004541244 -0.7373782 -0.37134093 0.05023949 -0.2977336 0.04288574
-0.112796634 0.14702596 0.017284412 -0.15983322 0.13214563 -0.422759 0.050038777 -0.28543696
0.22174117 -0.08034544 -0.01120468 -0.25472078 0.09943442 -0.2443279 -0.14243278 -0.32886288
0.45592877 -0.11601334 0.36448175 0.47224993 -0.14775592 -0.3045701 0.32368213 -0.17054714
0.07779424 -0.36425188 0.27710676 0.25358725 0.015153633 0.29986006 -0.12308921 -0.058913827
0.4450587 -0.1110101 -0.34178787 -0.20475511 0.008527096 -0.2884809 -0.15093519 0.21899244
0.100860536 0.047845673 -0.5599825 -0.5188249 -0.5581721 0.09971702 0.20042682 0.043480046
0.18677092 0.17595404 0.05063271 -0.16141398 -0.21628718 -0.0153097 -0.26412606 0.10410758
-0.007165719 -0.16367161 0.24001922 0.061065644 0.007199166 -0.13869758 -0.026171649 -0.13969599
0.07724948 0.17431924 0.16544197 -0.2910634 -0.14499034 0.048621543 0.22216378 -0.12655933
0.5070823 0.27172565 -0.23410054 0.04937724 -0.35083327 -0.3893034 -0.12690565 -0.1030434
-0.2756408 -0.13550238 0.01510338 -0.025787633 -0.09679639 0.23947796 -0.2887636 -0.15211238
-0.27290747 -0.79600024 0.09123179 0.10214121 -0.14362927 0.1525856 -0.09535269 -0.4790199
0.25058618 0.4683235 -0.5493382 0.07045837 0.5527215 -0.6189627 -0.029396532 0.2892778
-0.38293216 -0.28109813 0.3537993 0.7067638 -0.66185975 -0.19325551 0.037524216 -0.1947146
0.34410447 -0.04274455 -0.31699282 -0.16879766 -0.11030821 -0.12967534 0.12080995 -0.22888872
0.04039233 0.025651028 0.21221267 0.19381815 0.015071181 0.49502593 0.012790661 -0.20194264
0.5922105 -0.8757626 -0.4979956 0.34312475 -0.6365466 -0.14911982 -0.5266488 0.3622346
0.2327374 0.5612052 -0.3593073 0.11252761 -0.07531187 0.24049674 -0.10272862 -0.033479474
-0.024273025 -0.1632285 -0.20395407 -0.25265843 -0.05546429 -0.34010434 -0.23675634 0.031866528
-0.035799507 -0.22162755 -0.078461066 0.10450446 0.19342615 -0.20373052 -0.18877392 -0.1006023
-0.26050678 -0.09846906 0.113527246 0.09249561 0.098470986 -0.29639786 0.29390642 0.005064693
-0.15381326 0.30265653 0.004397282 -0.32364905 0.20888846 0.34638318 -0.25332448 -0.05964096
0.07523779 0.4266946 1.0931906 0.30711398 -0.54770875 -0.06206477 -0.28180525 -0.5501027
0.1506717 -0.39537138 0.18498738 -0.2014816 -0.28465524 -0.07366616 0.06920969 -0.09453685
0.28181395 -0.2827302 0.0049011833 0.10063875 -0.24256921 -0.14696746 -0.29109812 -0.13494301
0.0563792 -0.19172542 -0.28167507 -0.10679253 0.115091704 -0.5256641 -0.47023353 -0.059135597
00000000: c2f9 cbbd 95dc d7be 44ba a1bd 1955 913c
00000010: 1785 4fbd ed33 753e e7c0 033e d0f5 7d3d
00000020: 8916 6abd fb5a b9bd 0a4b 90be a04d 11bd
00000030: ab36 cbba e066 3e3e c005 04be 9380 a4be
00000040: 1e14 573e d3e5 13be b3c8 6abd 5658 873d
00000050: 156e 253e 0e29 f2bd 09b4 953e ace6 a03b
00000060: d1e8 aabe 0c75 62bc e803 ccbe 40fe fe3b
00000070: a533 c43c fe52 9bbe 87ca a2bd 5353 a8be
00000080: 7f4d 34be e1a1 96be caba 0bbe 9d4e 443e
00000090: 19b1 8bbd f697 e23d 5df8 ecbd 42ab 253d
000000a0: c298 2e3f dbe4 e03e b7ce 943b d1c4 3cbf
000000b0: 6620 bebe ecc7 4d3d 8a70 98be f5a8 2f3d
000000c0: ec01 e7bd f98d 163e 0a98 8d3c 52ab 23be
000000d0: 2f51 073e de73 d8be 76f5 4c3d cb24 92be
000000e0: 1e10 633e 268c a4bd d693 37bc c36a 82be
000000f0: 46a4 cb3d 1831 7abe e6d9 11be b760 a8be
00000100: 7f6f e93e 6798 edbd 5a9d ba3e beca f13e
00000110: 544d 17be 9df0 9bbe aab9 a53e e9a3 2ebe
00000120: 9652 9f3d 397f babe f0e0 8d3e 30d6 813e
00000130: f246 783c 4287 993e 3216 fcbd a04f 71bd
00000140: bcde e33e 4359 e3bd d2fe aebe 53ab 51be
00000150: 3cb5 0b3c c5b3 93be c18e 1abe 8e3f 603e
00000160: f88f ce3d d3f9 433d 035b 0fbf b5d1 04bf
00000170: 5ee4 0ebf 7038 cc3d b03c 4d3e 2218 323d
00000180: e040 3f3e 4c2d 343e 3f64 4f3d b549 25be
00000190: 637a 5dbe 89d5 7abc 883b 87be 5b36 d53d
000001a0: 68ce eabb 8899 27be 99c7 753e f81f 7a3d
000001b0: fbe6 eb3b bd06 0ebe ed65 d6bc 770c 0fbe
000001c0: fa34 9e3d be80 323e 9f69 293e 4306 95be
000001d0: 5978 14be 6227 473d e77e 633e c598 01be
000001e0: 25d0 013f a01f 8b3e 0db8 6fbe ca3f 4a3d
000001f0: 6ba0 b3be c652 c7be 8ef3 01be 6b08 d3bd
00000200: ca20 8dbe 23c1 0abe 2b74 773c 9640 d3bc
00000210: 303d c6bd b639 753e d3d8 93be 59c3 1bbe
00000220: 87ba 8bbe acc6 4bbf bcd7 ba3d 692f d13d
00000230: 8d13 13be 663f 1c3e 4548 c3bd 1942 f5be
00000240: d54c 803e 19c8 ef3e 6ea1 0cbf 7a4c 903d
00000250: 287f 0d3f 5774 1ebf ffd0 f0bc 381c 943e
00000260: af0f c4be 18ec 8fbe 2f25 b53e 79ee 343f
00000270: a46f 29bf c6e4 45be feb2 193d 4463 47be
00000280: 762e b03e e914 2fbd e24c a2be 4bd9 2cbe
00000290: 45e9 e1bd 9dc9 04be 356b f73d ce61 6abe
000002a0: 6e72 253d 1b22 d23c 474e 593e 4478 463e
000002b0: 1ded 763c 0a74 fd3e ec8f 513c 0dca 4ebe
000002c0: 1b9b 173f fa31 60bf 47f9 febe 0cae af3e
000002d0: b8f4 22bf deb2 18be 75d2 06bf d076 b93e
000002e0: b752 6e3e 25ab 0f3f 20f7 b7be e074 e63d
000002f0: 1c3d 9abd c744 763e 6263 d2bd c621 09bd
00000300: 39d8 c6bc 5f25 27be 56d9 50be 725c 81be
00000310: 862e 63bd 2822 aebe 4170 72be 7a86 023d
00000320: 81a2 12bd 55f2 62be 32b0 a0bd 6f06 d63d
00000330: 8111 463e bc9e 50be f34d 41be 9408 cebd
00000340: 2561 85be 26aa c9bd f980 e83d 576e bd3d
00000350: 28ab c93d 76c1 97be e77a 963e b9f5 a53b
00000360: 3981 1dbe ccf5 9a3e 1317 903b 54b5 a5be
00000370: dbe6 553e 2359 b13e bfb3 81be 144a 74bd
00000380: 4516 9a3d b777 da3e abed 8b3f 0b3e 9d3e
00000390: a436 0cbf a137 7ebd c748 90be 88d3 0cbf
000003a0: af49 1a3e 1e6e cabe 556d 3d3e 3151 4ebe
000003b0: 55be 91be 49de 96bd cfbd 8d3d 899c c1bd
000003c0: eb49 903e 03c2 90be 1b9a a03b b01b ce3d
000003d0: 1064 78be a37e 16be d00a 95be 802e 0abe
000003e0: e0ed 663d ab53 44be b737 90be 0bb6 dabd
000003f0: 33b5 eb3d ec91 06bf 73c2 f0be 2b38 72bd

encoder.0.bias f4 [32]
-0.19640209 -0.2913904 0.2763308 0.1445502 0.0060487716 0.10538271 -0.20217924 -0.16453563
-0.50942105 -0.17393751 -0.19513755 -0.026820973 -0.029873636 0.011617192 -0.20665798 -0.19912079
-0.011946094 0.12342258 -0.042629857 0.05004685 0.2755839 0.3483286 0.00990905 -0.06563822
-0.16345058 0.11899635 -0.17348051 -0.019616365 -0.18483697 -0.0029403372 -0.27854395 -0.1124312
00000000: a11d 49be 1f31 95be 3b7b 8d3e f804 143e
00000010: c634 c63b e4d2 d73d 1308 4fbe 077c 28be
00000020: 6b69 02bf ad1c 32be 23d2 47be a8b7 dbbc
00000030: 8eb9 f4bc 0956 3e3c 269e 53be 52e6 4bbe
00000040: 8db9 43bc fac4 fc3d a59c 2ebd edfd 4c3d
00000050: 5519 8d3e 2058 b23e 9159 223c 556d 86bd
00000060: 975f 27be 5cb4 f33d e0a4 31be 80b2 a0bc
00000070: e745 3dbe acb2 40bb 509d 8ebe 5442 e6bd

encoder.2.weight f4 [64, 32, 3, 3]
0.028547756 -0.016942982 -0.0040762313 0.0073112776 0.047901906 -0.027323259 0.009497718 0.008889712
0.026778178 -0.02262242 -0.0067640776 0.008170841 0.0023737983 -0.0028206075 -0.03727867 0.008572212
0.011900128 0.03929344 -0.037027843 0.016880078 0.009415415 0.040341165 0.05156819 -0.0404562
-0.028910724 -0.043027323 -0.024689086 -0.03341221 0.007373364 -0.043989666 0.01248193 -0.0030445375
-0.008382379 0.05311585 -0.045031972 -0.05411791 -0.048972256 -0.08436269 -0.088325374 -0.023906525
-0.08638469 -0.09234172 -0.02210746 -0.018428177 -0.035020363 -0.030714925 0.004363261 -0.03187511
-0.08264982 -0.01436703 -0.06160441 0.004254352 -0.04390243 -0.056688204 -0.025141664 -0.020260833
-0.012288799 0.04466943 0.016418522 -0.04624921 -0.030062202 0.038582336 0.04245127 0.048076183
0.0100266235 0.0123557085 0.037652384 0.050018474 -0.037702397 -0.021831673 -0.029900752 -0.00072027755
0.03169357 -0.0042210715 -0.037446294 -0.05429089 0.012218761 -0.01565098 0.060204588 0.022239286
0.049267817 -0.06745041 -0.00054800214 0.006446994 0.0035553589 -0.020108117 -0.06152423 -0.059792772
-0.079546176 -0.027159685 0.03546829 -0.025422899 -0.0493968 0.03567722 0.02551992 -0.032868452
-0.05487428 -0.015823664 0.0153027065 0.03414631 0.020307215 0.005150023 0.02231647 -0.00035799594
0.017343901 -0.07054448 0.020688755 -0.055728458 0.03423006 -0.03389786 -0.028528381 0.0370991
0.01376748 -0.02041103 0.03311361 -0.027592564 0.028675182 -0.020339707 -0.033598214 -0.019830609
-0.052805685 -0.0009692956 0.011990204 -0.016674135 0.030448878 -0.009038855 -0.03629969 -0.024494631
0.047489922 0.0032186985 0.051079214 0.018042097 -0.0018970858 0.05862456 0.049169764 0.028593825
-0.069192596 -0.06656041 -0.085506715 -0.050453987 -0.015017824 0.008512607 -0.0075430004 -0.05337206
0.0409084 -0.041001394 -0.049900364 -0.042503636 0.03147464 -0.051300615 0.039069 -0.013615576
0.01570315 -0.015590169 -0.003997454 0.04874901 0.025867417 -0.012430922 0.01610366 -0.026185533
0.0226687 0.04599811 -0.017936923 -0.05341826 0.034834966 -0.03071831 -0.041711774 -0.045541737
0.011208692 0.04425006 0.008729122 0.006932404 -0.043902535 -0.05557365 0.023898192 -0.008677627
0.0009235041 -0.034007717 -0.003526358 0.006576291 0.041752495 -0.05647248 -0.046956334 0.062905125
0.0005798658 0.054251086 0.05026455 -0.052258693 0.024506405 -0.0008440761 -0.014635812 -0.016252855
-0.057292387 -0.051738273 0.054254454 0.040193215 0.026518239 -0.01537548 -0.030352678 -0.005569772
0.0310793 -0.054416567 0.043519244 0.045157477 0.022264523 -0.055383652 -0.003815452 0.027720943
-0.013229324 0.02388354 -0.031085523 0.03319129 -0.0023214726 -0.010453673 0.0052844025 0.0060284412
-0.026762024 0.024309289 0.055257954 0.04217889 0.03493522 -0.03060648 0.0065445774 0.030738212
0.042740025 -0.0110283075 -0.010053489 -0.05583393 -0.077950336 -0.027802054 0.01175241 0.019555125
-0.06382806 -0.030201733 0.013502852 9.507235e-06 -0.036044657 0.047924932 0.037440304 -0.055758227
-0.008712675 0.04789821 0.058527138 0.029275404 -0.02785972 -0.019177955 -0.00076896924 0.05043354
0.009631742 0.054078817 0.049856715 0.015374644 -0.057790667 0.043851916 -0.0018245887 0.004722922
00000000: fcdc e93c 02cc 8abc e891 85bb 7193 ef3b
00000010: ca34 443d 07d5 dfbc 519c 1b3c 28a6 113c
00000020: e95d db3c a752 b9bc 32a5 ddbb fede 053c
00000030: ba91 1b3b f1d9 38bb 85b1 18bd 7772 0c3c
00000040: c1f8 423c 28f2 203d 82aa 17bd 1748 8a3c
00000050: 1d43 1a3c c73c 253d 2b39 533d 66b5 25bd
00000060: 2fd6 ecbc 6b3d 30bd c440 cabc 3edb 08bd
00000070: 439c f13b 822e 34bd 0281 4c3c dd86 47bb
00000080: 3f56 09bc 0190 593d 7273 38bd beaa 5dbd
00000090: 2297 48bd 59c6 acbd efe3 b4bd 9ed7 c3bc
000000a0: 75ea b0bd a81d bdbd b41a b5bc b0f6 96bc
000000b0: 8371 0fbd de9d fbbc b0f9 8e3b 7a8f 02bd
000000c0: 4f44 a9bd b163 6bbc e854 7cbd 1768 8b3b
000000d0: 09d3 33bd e431 68bd e4f5 cdbc 0cfa a5bc
000000e0: f556 49bc 4bf7 363d 2380 863c d06f 3dbd
000000f0: 0245 f6bc 8308 1e3d 62e1 2d3d 88eb 443d
00000100: b546 243c 996f 4a3c 6339 1a3d 2ce0 4c3d
00000110: d46d 1abd 56d8 b2bc 6cf2 f4bc 02d1 3cba
00000120: 1ed1 013d ea50 8abb 4961 19bd 2060 5ebd
00000130: 3331 483c 7c36 80bc 1699 763d 2a2f b63c
00000140: 0dcd 493d 7123 8abd cda7 0fba 4e41 d33b
00000150: 0601 693b c7b9 a4bc d500 7cbd 44e9 74bd
00000160: 1be9 a2bd fd7d debc 3347 113d af43 d0bc
00000170: 4d54 4abd 4722 123d 270f d13c 12a1 06bd
00000180: dac3 60bd a1a0 81bc 34b8 7a3c 00dd 0b3d
00000190: 515b a63c 86c1 a83b 08d1 b63c 67b1 bbb9
000001a0: cc14 8e3c a079 90bd 777b a93c 8643 64bd
000001b0: d234 0c3d 7cd8 0abd 5ab4 e9bc 3af5 173d
000001c0: ff90 613c 0835 a7bc 23a2 073d cd09 e2bc
000001d0: 37e8 ea3c 759f a6bc 489e 09bd cd73 a2bc
000001e0: c64a 58bd 5418 7eba 9072 443c 3298 88bc
000001f0: ed6f f93c b517 14bc fcae 14bd f7a8 c8bc
00000200: cb84 423d cdf0 523b 7038 513d 05cd 933c
00000210: a3a7 f8ba 4e20 703d 3c66 493d 993d ea3c
00000220: d9b4 8dbd d350 88bd 251e afbd d7a8 4ebd
00000230: 520d 76bc 7678 0b3c 462b f7bb a99c 5abd
00000240: 918f 273d 14f1 27bd 5364 4cbd 4b18 2ebd
00000250: 8deb 003d 9820 52bd d106 203d dd13 5fbc
00000260: e4a3 803c e86d 7fbc 13fd 82bb 0bad 473d
00000270: e8e7 d33c 11ab 4bbc d3eb 833c 0b83 d6bc
00000280: b6b3 b93c 8468 3c3d 74f0 92bc 1bcd 5abd
00000290: 1caf 0e3d f7a4 fbbc f7d9 2abd f989 3abd
000002a0: a9a4 373c 8d3f 353d 9704 0f3c 3829 e33b
000002b0: 25d3 33bd 32a1 63bd 24c6 c33c 9b2c 0ebc
000002c0: 5017 723a ad4b 0bbd 781a 67bb ed7d d73b
000002d0: aa04 2b3d b04f 67bd 4955 40bd 67d4 803d
000002e0: 2302 183a 6336 5e3d 33e2 4d3d 360d 56bd
000002f0: a8c1 c83c fd44 5dba 0bcb 6fbc b524 85bc
00000300: 6cab 6abd 83eb 53bd eb39 5e3d a4a1 243d
00000310: c73c d93c 70e9 7bbc 2ea6 f8bc a282 b6bb
00000320: 049a fe3c e8e3 5ebd 3c41 323d 0cf7 383d
00000330: 1764 b63c f8d9 62bd aa0c 7abb 0817 e33c
00000340: cebf 58bc 6aa7 c33c 11a7 febc 97f3 073d
00000350: d923 18bb e245 2bbc c828 ad3b 3b8a c53b
00000360: 083c dbbc 4624 c73c 2a56 623d c6c3 2c3d
00000370: 3c18 0f3d 71ba fabc e573 d63b b4ce fb3c
00000380: 2a10 2f3d 13b0 34bc 64b7 24bc 1eb2 64bd
00000390: 6da4 9fbd 22c1 e3bc 2e8d 403c 1232 a03c
000003a0: 49b8 82bd a069 f7bc 113b 5d3c 4381 1f37
000003b0: 90a3 13bd ef4c 443d 015b 193d bd62 64bd
000003c0: 9cbf 0ebc ea30 443d 27ba 6f3d f9d2 ef3c
000003d0: 113a e4bc 161b 9dbc a794 49ba 6693 4e3d
000003e0: 74ce 1d3c c081 5d3d 8e36 4c3d eee5 7b3c
000003f0: e8b5 6cbd 119e 333d 0a27 efba bec2 9a3b

encoder.2.bias f4 [64]
-0.011026023 0.08353965 -0.03487045 -0.04762843 -0.06693731 -0.042377748 -0.07782177 -0.053502105
-0.026028907 0.24773666 -0.12361413 -0.14570655 -0.048214257 -0.14459796 -0.12138376 0.044861373
-0.018591003 -0.047929462 -0.08484179 -0.03688369 -0.09403555 -0.084480286 -0.03382781 -0.07079548
0.076482795 0.051142007 -0.07783689 -0.092541896 -0.23603338 -0.059035823 -0.019049786 -0.04039373
-0.069589645 -0.02009538 -0.028230337 0.055599075 -0.036545407 -0.021078797 -0.007295062 0.06360912
0.0343301 -0.004298958 0.040832862 -0.07016851 0.09427304 -0.05152216 -0.024753366 -0.053389173
-0.0036713826 0.045597605 -0.23850617 -0.045563146 -0.15078165 -0.057258792 -0.0040676086 -0.08453333
0.072797984 -0.01950743 -0.12914991 -0.068030655 0.10204628 -0.0651615 -0.105474375 -0.024152042
00000000: 7ea6 34bc d616 ab3d 51d4 0ebd 0716 43bd
00000010: 6e16 89bd 4a94 2dbd 0561 9fbd 0625 5bbd
00000020: 933a d5bc aeae 7d3e 6829 fdbd 1934 15be
00000030: 507c 45bd 7d11 14be 0c98 f8bd 8fc0 373d
00000040: 294c 98bc af51 44bd 88c1 adbd 5a13 17bd
00000050: b695 c0bd 0004 adbd 088f 0abd 38fd 90bd
00000060: 03a3 9c3d 487a 513d f368 9fbd 9b86 bdbd
00000070: bcb2 71be 8ccf 71bd 4c0e 9cbc e573 25bd
00000080: 0485 8ebd 119f a4bc 4f43 e7bc dbbb 633d
00000090: a3b0 15bd 71ad acbc 6a0b efbb 8045 823d
000000a0: b89d 0c3d 46de 8cbb 5c40 273d 82b4 8fbd
000000b0: 3912 c13d e708 53bd 92c7 cabc 9bae 5abd
000000c0: 949b 70bb 8ec4 3a3d f63a 74be 6ca0 3abd
000000d0: 8166 1abe 3288 6abd 9349 85bb cf1f adbd
000000e0: 1c17 953d 0cce 9fbc e03f 04be a853 8bbd
000000f0: a4fd d03d 6473 85bd f302 d8bd 81da c5bc

encoder.4.weight f4 [128, 64, 3, 3]
0.032219514 0.013064028 0.0032802299 -0.030994903 0.03560154 -0.023255652 -0.02119239 -0.0041983738
0.032063566 -0.006555207 -0.03984718 -0.029084502 -0.04839323 -0.035810135 -0.033114824 -0.009560433
0.02739197 -0.015068376 0.013086342 0.0126922345 -0.022708984 -0.035184927 -0.038664855 0.025044905
0.03754598 -0.028447852 -0.024857992 -0.04203998 0.026135774 0.023443494 -0.012882054 0.008066772
0.008215935 0.015222652 0.011949944 -0.037529234 0.028978433 0.0009894641 0.023918089 -0.02977791
-0.0029868716 0.02518351 0.019717056 0.037772294 0.020717487 0.032449845 -0.019891212 0.029886596
0.02183982 -0.027213495 0.016310442 -0.034717478 -0.0044601206 -0.01701577 0.027693039 -0.004828064
0.0070934827 -0.036004774 0.011729162 0.023345035 0.020990105 -0.019311793 -0.029564474 -0.032313775
0.01935709 -0.011540759 0.034108564 0.02529478 -0.009718745 -0.036475535 -0.029899983 0.017744474
0.0043177344 -0.015832769 -0.0020750852 -0.0074126013 0.024734313 -0.0049178833 0.010264348 0.030881649
0.001090987 -0.024531644 -0.044706497 -0.0010210085 0.047710925 0.009661418 -0.0046170973 0.054848943
0.026579652 0.050350033 -0.02720314 0.018780679 -0.030612288 0.008146969 -0.004076005 -0.035145443
-0.036118843 0.010247014 0.014710823 0.037847698 -0.009234959 0.017180543 -0.032856666 0.008507823
0.027977718 -0.018819937 -0.021170758 0.034261543 -0.023653317 -0.012336932 0.036327016 0.0027624322
0.02511605 0.017894085 0.03583205 -0.032350574 0.037390545 -0.002599789 -0.002782115 -0.03978149
-0.040715605 -0.018617593 -0.036546737 -0.030623743 -0.038873646 -0.048089076 -0.01948091 0.03404765
0.015847698 -0.0327758 -0.008399995 -0.0481615 0.011515039 0.034013215 -0.018965771 0.015292713
0.01991961 0.038472712 0.02199063 -0.02163484 0.02384822 0.007946956 0.0059681777 0.02180728
-0.0024307945 -0.0076378235 0.0066259657 0.03237217 0.035172205 0.024612766 -0.03832734 0.028429346
0.018842837 -0.038930032 -0.039016668 -0.032701466 0.016141376 0.025292529 -0.011127605 0.022538401
-0.03437322 -0.040084224 -0.008377277 -0.040091094 0.031905163 -0.045553792 -0.00983818 0.01978767
0.017673 0.028547576 -0.0025478508 0.00029073548 -0.026079226 0.0036428443 -0.004431352 0.0072267796
-0.047936454 -0.0354412 -0.05216054 0.008300104 -0.004400151 0.0078052515 -0.04149539 -0.013953855
-0.04267376 -0.042435613 -0.0132127525 -0.0012835375 -0.028141573 -0.019419622 -0.05440569 -0.0024094025
-0.0028252308 -0.010720773 -0.054582257 -0.043799426 -0.044858746 -0.007568746 0.008582363 0.038528357
0.07464671 0.0312585 -0.0069665895 0.033608876 -0.0144920945 0.003421378 0.071631335 -0.02519601
0.022143869 0.037088487 -0.0039894897 5.1706847e-05 0.017442927 0.029482128 -0.042207725 0.0112362355
-0.027624223 -0.012168208 0.023484478 0.032248307 -0.021207467 -0.011997575 -0.0043854746 0.026648728
-0.03525176 -0.023269953 -0.026807122 -0.029362168 0.025814395 0.027651798 0.01664035 0.048670173
0.03390024 0.016335774 -0.0056608403 0.02909289 0.026713517 0.038516194 0.034241207 -0.026865007
0.026433876 0.004706793 0.015990432 -0.021696407 0.027986681 0.0009736087 0.009048965 -0.027762538
-0.05607954 0.035180304 -0.026360106 -0.01237076 -0.0007584777 0.08338454 -0.023420103 0.017204482
00000000: 9cf8 033d 810a 563c 20f9 563b 06e9 fdbc
00000010: ecd2 113d a382 bebc aa9b adbc 8392 89bb
00000020: 1655 033d 10cd d6bb cc36 23bd 9f42 eebc
00000030: fb37 46bd a6ad 12bd 69a3 07bd 5da3 1cbc
00000040: 2065 e03c 5ae1 76bc 1968 563c 17f3 4f3c
00000050: 3108 babc 121e 10bd 0a5f 1ebd f92a cd3c
00000060: d0c9 193d 780b e9bc fda2 cbbc 1d32 2cbd
00000070: b11a d63c 920c c03c 400f 53bc 7e2a 043c
00000080: 219c 063c 6e68 793c b3c9 433c 41b8 19bd
00000090: 2e64 ed3c e8b0 813a deef c33c cef0 f3bc
000000a0: 64bf 43bb a64d ce3c aa85 a13c 1fb7 1a3d
000000b0: b8b7 a93c 21ea 043d e5f2 a2bc bcd4 f43c
000000c0: 6ce9 b23c d6ee debc 7a9d 853c ea33 0ebd
000000d0: 3426 92bb a864 8bbc 83dc e23c bc34 9ebb
000000e0: 7270 e83b be79 13bd ac2b 403c 163e bf3c
000000f0: 71f3 ab3c c433 9ebc 3231 f2bc 735b 04bd
00000100: c392 9e3c 7415 3dbc 6cb5 0b3d 0037 cf3c
00000110: 5f3b 1fbc 5f67 15bd cff0 f4bc dc5c 913c
00000120: c87b 8d3b b9b3 81bc 27fe 07bb 68e5 f2bb
00000130: 9d9f ca3c 3226 a1bb cc2b 283c 83fb fc3c
00000140: 73ff 8e3a 96f6 c8bc 291e 37bd 5cd3 85ba
00000150: 886c 433d ed4a 1e3c 054b 97bb 49a9 603d
00000160: 92bd d93c d63b 4e3d 1fd9 debc f0d9 993c
00000170: 9fc6 fabc dd7a 053c 0290 85bb abf4 0fbd
00000180: 5af1 13bd 18e3 273c aa05 713c 3006 1b3d
00000190: 3a4e 17bc 36be 8c3c b694 06bd 6564 0b3c
000001a0: 8731 e53c 452c 9abc 4c6e adbc d555 0c3d
000001b0: 9ac4 c1bc d820 4abc a3cb 143d ec09 353b
000001c0: 2dc0 cd3c 9e96 923c a1c4 123d 0982 04bd
000001d0: d426 193d 3961 2abb 2554 36bb eaf1 22bd
000001e0: 68c5 26bd ec83 98bc 08b2 15bd a5de fabc
000001f0: f939 1fbd 0df9 44bd 6e96 9fbc 8c75 0b3d
00000200: 08d3 813c eb3f 06bd 22a0 09bc fe44 45bd
00000210: 93a9 3c3c 7151 0b3d 1b5e 9bbc 4a8e 7a3c
00000220: 732e a33c 9095 1d3d b225 b43c 8c3b b1bc
00000230: 585d c33c f333 023c b490 c33b 2ea5 b23c
00000240: f74d 1fbb b546 fabb a11e d93b ae98 043d
00000250: bb10 103d b6a0 c93c 21fd 1cbd a9e4 e83c
00000260: 4b5c 9a3c 1975 1fbd f1cf 1fbd f9f1 05bd
00000270: eb3a 843c 4732 cf3c 8f50 36bc 74a2 b83c
00000280: efca 0cbd 5b2f 24bd d940 09bc 8f36 24bd
00000290: fdae 023d 9d96 3abd 5130 21bc c019 a23c
000002a0: f8c6 903c 9bdc e93c d8f9 26bb db6d 9839
000002b0: 1aa4 d5bc c9bc 6e3b e034 91bb 9fce ec3b
000002c0: 0459 44bd cb2a 11bd 4aa6 55bd 29fd 073c
000002d0: 242f 90bb 32c3 ff3b 12f7 29bd b69e 64bc
000002e0: aeca 2ebd f7d0 2dbd 4d7a 58bc 5f3c a8ba
000002f0: 2889 e6bc e615 9fbc 80d8 5ebd 11e7 1dbb
00000300: 8227 39bb 2ea6 2fbc a591 5fbd 0767 33bd
00000310: cebd 37bd 3e03 f8bb 0a9d 0c3c e9cf 1d3d
00000320: 60e0 983d ea08 003d fd47 e4bb 76a9 093d
00000330: 4070 6dbc 3339 603b 73b3 923d dd67 cebc
00000340: 0f67 b53c 19ea 173d 44ba 82bb cedf 5838
00000350: 78e4 8e3c 8184 f13c 02e2 2cbd 3018 383c
00000360: 324c e2bc 2a5d 47bc 8562 c03c cd16 043d
00000370: 48bb adbc 7a91 44bc 07b4 8fbb 6f4e da3c
00000380: 2664 10bd a1a0 bebc 9c9a dbbc ee88 f0bc
00000390: b678 d33c 0686 e23c 5851 883c 605a 473d
000003a0: fada 0a3d 9ad2 853c 927e b9bb 3654 ee3c
000003b0: 4ed6 da3c 28c3 1d3d 8240 0c3d 0114 dcbc
000003c0: db8b d83c 713b 9a3b 5efe 823c aabc b1bc
000003d0: 5344 e53c c639 7f3a 1c42 143c 436e e3bc
000003e0: a9b3 65bd 3919 103d 26f1 d7bc baae 4abc
000003f0: 94d4 46ba 84c5 aa3d 84db bfbc 6af0 8c3c

encoder.4.bias f4 [128]
-0.059814934 0.007534508 0.019339187 -0.02295037 -0.03615698 -0.016602343 -0.030523662 -0.0069467654
0.014867085 0.022562847 -0.055295773 0.035790578 -0.07856475 -0.013182554 0.008614235 0.014530563
-0.02895128 -0.04910876 0.03566937 0.023616754 0.03545584 0.016133666 -0.06930422 -0.013921811
-0.0101519665 -0.039450068 0.041282292 -0.037957456 0.00044101465 -0.011898827 0.012084819 0.019463973
-0.012826275 -0.03343703 -0.012050344 -0.014084501 0.021618752 -0.025774995 -0.038095903 -0.021937868
0.047891803 0.037142463 -0.010048195 -0.03167409 -0.032362264 0.05557095 0.008245369 -0.013802446
-0.06069146 -0.015944824 0.03407133 0.026095945 -0.05508375 -0.029391306 -0.004024025 0.016821442
-0.012511105 0.02723896 0.04566254 0.004739334 -0.03252202 0.032509353 -0.02192569 0.018943151
0.025208246 -0.060716435 -0.020550283 0.027193004 0.020248167 0.0489618 0.0033141 -0.0113479905
0.05905713 0.03468195 -0.010169391 -0.038913373 -0.067596614 0.0088214725 -0.052309882 -0.02645291
0.09338159 -0.06681284 -0.03968868 0.006013613 0.01480618 0.037337482 0.028326055 -0.02851883
0.020275181 -0.037344705 0.022700226 0.08935354 0.014731383 0.030321883 -0.023824256 -0.02842862
-0.01316059 -0.019339263 0.015300853 -0.020733813 -0.03528435 -0.015338211 0.019997202 -0.051525697
-0.062136646 -0.0060844417 -0.049653143 -0.0399995 -0.04464431 -0.01271604 -0.019118415 0.03632334
0.0574386 0.013843667 0.021283174 0.009360219 0.020163033 -0.037847035 -0.069096684 0.006801727
-0.017136803 0.046840653 -0.013333437 -0.027320756 0.0010742572 -0.017772699 -0.017758407 -0.035894345
00000000: 8100 75bd 09e4 f63b 376d 9e3c 6a02 bcbc
00000010: 5719 14bd a301 88bc c20c fabc b1a1 e3bb
00000020: 1395 733c b8d5 b83c d27d 62bd 2499 123d
00000030: 8ee6 a0bd a4fb 57bc b822 0d3c 9911 6e3c
00000040: 3c2b edbc 4426 49bd 0c1a 123d ec77 c13c
00000050: 253a 113d c02a 843c 5fef 8dbd 4f18 64bc
00000060: 6f54 26bc 6596 21bd 9f17 293d 4779 1bbd
00000070: fc37 e739 4cf3 42bc 68ff 453c e972 9f3c
00000080: 4c25 52bc 44f5 08bd ce6e 45bc aec2 66bc
00000090: cf19 b13c 1526 d3bc 730a 1cbd 0bb7 b3bc
000000a0: 322a 443d b222 183d 2fa1 24bc b1bc 01bd
000000b0: 4b8e 04bd 5d9e 633d 9617 073c a823 62bc
000000c0: 9c97 78bd b89e 82bc 618e 0b3d 2ac7 d53c
000000d0: 809f 61bd 09c6 f0bc f8db 83bb 1fcd 893c
000000e0: 61fb 4cbc 3d24 df3c a508 3b3d 6a4c 9b3b
000000f0: cf35 05bd 8728 053d 819d b3bc ab2e 9b3c
00000100: 8681 ce3c ccb1 78bd 1159 a8bc ddc3 de3c
00000110: 7cdf a53c 2b8c 483d 5f31 593b ecec 39bc
00000120: e4e5 713d a90e 0e3d 849d 26bc a163 1fbd
00000130: 1870 8abd f087 103c e342 56bd c6b3 d8bc
00000140: d93e bf3d 2cd5 88bd 9990 22bd d80d c53b
00000150: 9f95 723c 30ef 183d 0b0c e83c 52a0 e9bc
00000160: 2318 a63c c3f6 18bd d3f5 b93c fdfe b63d
00000170: e65b 713c 9965 f83c 162b c3bc 23e3 e8bc
00000180: 849f 57bc 606d 9ebc 6eb0 7a3c f5d9 a9bc
00000190: 5386 10bd 1f4d 7bbc 2cd1 a33c 9c0c 53bd
000001a0: ff82 7ebd ff5f c7bb 1861 4bbd 84d6 23bd
000001b0: f4dc 36bd f056 50bc 399e 9cbc c8c7 143d
000001c0: bd44 6b3d 8cd0 623c 0d5a ae3c 9b5b 193c
000001d0: f22c a53c 7e05 1bbd 9082 8dbd 06e1 de3b
000001e0: 7b62 8cbc fcdb 3f3d 7d74 5abc c7cf dfbc
000001f0: 17ce 8c3a 0d98 91bc 147a 91bc f305 13bd

decodeur.0.weight f4 [128, 64, 3, 3]
-0.0031275328 0.060602933 -0.010613273 0.04455371 7.988883e-05 -0.005319949 0.054036353 0.051176667
0.015406236 0.055583373 0.019084439 -0.015930666 -0.004426457 0.029649574 0.025360398 -0.041859142
0.028492212 -0.017810434 -0.013076372 -0.028563293 0.021570478 -0.017046051 -0.0005485248 -0.02289679
-0.023014223 0.00084554096 -0.017385133 -0.022757458 0.009921898 -0.03643669 -0.027877327 -0.012708674
-0.029022459 0.033135246 0.029652102 0.028141638 -0.015002495 -0.019614264 -0.008215147 0.02896112
-0.018143881 -0.04237272 -0.0029144662 -0.0021646593 -0.020972053 -0.040521193 0.016997732 0.012468956
-0.009092973 -0.034471862 -0.010304169 0.032893565 0.010557355 0.044439036 0.022928765 0.025834229
-0.007386629 0.01346006 -0.01733793 0.024364417 -0.015322975 0.022345407 0.041526295 -0.04142534
0.029746184 -0.0052322117 -0.03971175 -0.034776736 -0.015907874 0.009313052 0.0130867 -0.008273428
0.0154198045 -0.034881655 0.041016072 -0.015949408 -0.012517907 0.047690544 -0.02686284 0.02695573
0.006193334 0.0031528648 0.002787409 -0.02694834 0.033760473 0.011657828 0.005999156 0.045385648
0.006608429 -0.030599117 0.0044931094 0.016852986 0.00097435794 0.026385022 -0.035737976 0.017391171
0.021655958 0.03374925 0.0022546626 -0.03771269 0.031494305 0.020652216 -0.043017704 -0.033543423
-0.020131528 0.02535748 0.033261728 0.0072341925 0.030491922 -0.037319083 -0.029662585 -0.033420336
-0.041121025 -0.0072892816 0.031778432 -0.028871028 0.020828297 -0.015508358 -0.046788204 -0.031975176
0.00026776994 -0.0029305343 0.017856747 0.032684747 -0.016106326 0.031878043 -0.029818088 0.04064635
-0.005175309 0.0008656039 -0.012923345 -0.011434789 -0.013241069 0.036383472 0.018579772 0.03924242
0.017209109 0.009078998 -0.009571388 0.038662724 -0.01538991 0.008615768 0.005466048 0.036153268
-0.0022150346 -0.034774035 0.014903892 -0.0041667945 0.0060127447 0.0046766335 -0.017273553 -0.024655148
-0.0387682 0.026173836 -0.008850832 -0.019918809 0.022793856 -0.038438253 -0.00084307627 0.011586188
-0.0084562395 0.0025708873 -0.02477381 0.00048091123 0.050341588 -0.011503304 0.04020828 -0.022386905
-0.022457534 -0.022254203 -0.0005211639 0.049264103 0.005657173 0.03479184 0.034569092 0.0058215647
-0.009157905 -0.004854041 -0.015581123 -0.037667334 -0.015650697 0.06281197 0.024105063 -0.022011692
0.052955646 0.012457773 0.030202225 0.0030758965 -0.017048843 -0.0013932302 0.0034797858 -0.0435735
-0.017374856 -0.052534986 -0.0071417675 -0.011945252 -0.040195197 -0.0068184547 -0.038449463 -0.030899398
0.030403126 0.019130511 0.023880135 0.0032074533 0.01867357 -0.03406136 0.0126555255 -0.037392303
-0.033604752 -0.040006418 0.030907374 0.020000568 0.024294581 -0.027550042 0.03141268 0.018730162
-0.004931527 0.023485947 0.006672468 -0.014832615 0.042330537 -0.034333356 0.026361851 -0.010636401
0.009472019 0.02426541 -0.022493782 0.00067364454 -0.015901193 0.04022148 0.035123877 0.004916089
0.038206402 -0.029701622 0.01753932 0.007611122 0.020932674 0.009556859 0.018397259 -0.0017408811
0.016787492 -0.012449337 0.03814965 0.044626456 0.0013880922 0.03384934 0.029866455 0.047331125
0.039929423 0.040224757 0.04308917 0.02031487 0.0026247539 0.019116636 -0.020289384 0.04011756
00000000: 4bf7 4cbb c83a 783d 4be3 2dbc f37d 363d
00000010: fd89 a738 f752 aebb 3955 5d3d a09e 513d
00000020: 706a 7c3c 64ab 633d f856 9c3c 0781 82bc
00000030: d00b 91bb aae3 f23c 9cc0 cf3c 7e74 2bbd
00000040: 8068 e93c 30e7 91bc 483e 56bc 91fd e9bc
00000050: 92b4 b03c 29a4 8bbc e0ca 0fba 0d92 bbbc
00000060: 5388 bcbc 4ba7 5d3a 446b 8ebc d96d babc
00000070: 758f 223c a33e 15bd fe5e e4bc 0b38 50bc
00000080: 82c0 edbc d3b8 073d f7e8 f23c 4b89 e63c
00000090: 06cd 75bc 18ae a0bc d398 06bc df3f ed3c
000000a0: 7aa2 94bc 048f 2dbd a100 3fbb f5dc 0dbb
000000b0: 95cd abbc 8df9 25bd d43e 8b3c 984a 4c3c
000000c0: b1fa 14bc 5e32 0dbd d1d2 28bc 67bb 063d
000000d0: c2f8 2c3c b505 363d 1bd5 bb3c 4ea2 d33c
000000e0: 890b f2bb 9587 5c3c 4608 8ebc e397 c73c
000000f0: 370d 7bbc b70d b73c 7a17 2a3d 9ead 29bd
00000100: 45ae f33c f972 abbb caa8 22bd 0d72 0ebd
00000110: 3b51 82bc c595 183c 9969 563c 468d 07bc
00000120: 59a3 7c3c 11e0 0ebd 7800 283d 55a8 82bc
00000130: e817 4dbc 2957 433d 750f dcbc 43d2 dc3c
00000140: 73f1 ca3b 4ba0 4e3b f6ac 363b c4c2 dcbc
00000150: 6c48 0a3d 7a00 3f3c 9194 c43b 4de6 393d
00000160: 858b d83b 00ab fabc ef3a 933b 460f 8a3c
00000170: 0e6c 7f3a 6725 d83c fc61 12bd ee77 8e3c
00000180: d667 b13c a73c 0a3d f6c2 133b 9f78 1abd
00000190: 2c00 013d d62e a93c 5533 30bd d464 09bd
000001a0: e0ea a4bc 7dba cf3c 733d 083d ce0c ed3b
000001b0: 32ca f93c e5db 18bd f3fe f2bc c3e3 08bd
000001c0: 856e 28bd edda eebb 1a2a 023d ef82 ecbc
000001d0: 1ba0 aa3c c516 7ebc fda4 3fbd 67f8 02bd
000001e0: 7963 8c39 350e 40bb 5048 923c 71e0 053d
000001f0: 6af1 83bc 8d92 023d 1045 f4bc c97c 263d
00000200: a395 a9bb b2e9 623a 70bc 53bc fb58 3bbc
00000210: 12f1 58bc d606 153d 9b34 983c a9bc 203d
00000220: 1efa 8c3c 14c0 143c 50d1 1cbc ce5c 1e3d
00000230: f625 7cbc 2629 0d3c 891c b33b 7315 143d
00000240: 1d2a 11bb 386f 0ebd 742f 743c 9b89 88bb
00000250: 8f06 c53b 723e 993b 4481 8dbc 98f9 c9bc
00000260: 67cb 1ebd 836a d63c 1403 11bc c52c a3bc
00000270: 2eba ba3c 6e71 1dbd e401 5dba ffd3 3d3c
00000280: 0a8c 0abc 557c 283b 72f2 cabc d022 fc39
00000290: fb32 4e3d 5b78 3cbc 70b1 243d be64 b7bc
000002a0: ddf8 b7bc 724e b6bc b89e 08ba 28c9 493d
000002b0: cf5f b93b e381 0e3d 5298 0d3d d3c2 be3b
000002c0: 0a0b 16bc a60e 9fbb f747 7fbc 1049 1abd
000002d0: e435 80bc 90a3 803d fb77 c53c dd51 b4bc
000002e0: 05e8 583d b01b 4c3c a86a f73c fb94 493b
000002f0: 04aa 8bbc 0c9d b6ba 1e0d 643b 207a 32bd
00000300: b755 8ebc ed2e 57bd 7d05 eabb 05b6 43bc
00000310: b8a3 24bd 586d dfbb 2f7d 1dbd bc20 fdbc
00000320: fa0f f93c 97b7 9c3c 46a0 c33c 2334 523b
00000330: 51f9 983c ed83 0bbd 1f59 4f3c ac28 19bd
00000340: 23a5 09bd c5dd 23bd 7631 fd3c 3bd8 a33c
00000350: 6e05 c73c a0b0 e1bc 95aa 003d ff6f 993c
00000360: a698 a1bb 9a65 c03c b8a4 da3b 7f04 73bc
00000370: c962 2d3d 22a1 0cbd cff4 d73c 4d44 2ebc
00000380: 8730 1b3c 41c8 c63c e144 b8bc 8597 303a
00000390: 3843 82bc 47bf 243d 0ede 0f3d 2517 a13b
000003a0: 517e 1c3d d150 f3bc 9fae 8f3c b866 f93b
000003b0: 007b ab3c 5f94 1c3c d9b5 963c 472e e4ba
000003c0: ec85 893c 4ef8 4bbc cf42 1c3d 3bca 363d
000003d0: a5f0 b53a 9ba5 0a3d 7faa f43c 48de 413d
000003e0: 098d 233d b7c2 243d 457e 303d 5f6b a63c
000003f0: 1004 2c3b 7e9a 9c3c ec35 a6bc 5052 243d

decodeur.0.bias f4 [64]
0.10029621 0.20768383 -0.034045145 -0.006825506 -0.060222697 0.16512394 -0.040858556 -0.12533177
-0.02158626 0.048476953 -0.023929033 -0.100192495 -0.033560127 0.042144243 -0.024314001 -0.077421114
-0.25029573 -0.07104152 0.042864658 -0.020766387 -0.1280648 0.0821718 0.00023130578 0.031060057
-0.110866085 -0.06978985 0.060370144 -0.07986111 -0.005250673 0.11786833 -0.02041252 0.07511908
0.021690652 -0.05735281 0.1171277 -0.1605951 0.011435822 0.14914575 -0.063555345 -0.05175083
0.11520637 -0.118439324 -0.10415256 -0.030304974 -0.1397291 -0.03051404 0.31036118 -0.15684424
0.05469699 -0.02161519 0.16202387 -0.05736477 0.007364408 -0.05302527 -0.026409525 0.027249476
0.2693277 0.0708201 -0.02746368 0.074994646 0.13237254 0.13378091 -0.030658906 -0.10661718
00000000: 1968 cd3d 12ab 543e ec72 0bbd 7fa8 dfbb
00000010: 13ac 76bd 4016 293e 4d5b 27bd f956 00be
00000020: abd5 b0bc c58f 463d d206 c4bc b931 cdbd
00000030: 5876 09bd 719f 2c3d 282e c7bc f68e 9ebd
00000040: c326 80be 377e 91bd da92 2f3d 451e aabc
00000050: 6b23 03be b049 a83d ac8a 7239 a971 fe3c
00000060: c20d e3bd fbed 8ebd af46 773d 398e a3bd
00000070: d60d acbb f364 f13d 2838 a7bc 08d8 993d
00000080: 98b0 b13c c8ea 6abd a6e0 ef3d 0b73 24be
00000090: 505d 3b3c aab9 183e 4e29 82bd aef8 53bd
000000a0: 51f1 eb3d 5190 f2bd f04d d5bd 2342 f8bc
000000b0: 2515 0fbe 94f8 f9bc a9e7 9e3e c79b 20be
000000c0: f309 603d 5712 b1bc 96e9 253e 52f7 6abd
000000d0: 2251 f13b 0731 59bd ca58 d8bc 4b3a df3c
000000e0: 52e5 893e 210a 913d 83fb e0bc cb96 993d
000000f0: ab8c 073e ddfd 083e 6328 fbbc 1c5a dabd

decodeur.2.weight f4 [64, 32, 3, 3]
0.018839877 -0.046400342 -0.024377203 0.030941257 -0.014535633 -0.057908945 0.0030293523 0.016164841
-0.049614545 0.034377206 -0.026540127 -0.089921385 0.00072996906 -0.01243824 -0.007280547 -0.006477225
-0.042128313 -0.074199915 0.055051 0.033179637 0.006375581 0.042047985 -0.0026649842 0.024345277
0.0102742035 0.05247407 0.008796538 -0.09921065 -0.015906055 -0.031816002 -0.038871758 0.007076179
-0.09598421 0.004750461 -0.019029874 -0.09003425 -0.035807304 -0.02904711 -0.016228199 -0.06490552
-0.0058178552 0.037415773 -0.013604948 0.025405224 -0.029113773 0.033194788 0.009085316 0.0055749808
0.02482147 -0.049194217 0.015508629 -0.04984925 -0.0365729 0.05773047 0.01747827 -0.04870357
0.02105375 0.022088736 -0.0022908445 0.016418593 0.05618147 -0.0044642743 0.036905643 0.024028523
-0.07175639 -7.942487e-05 0.014017602 -0.05414155 5.1518244e-05 -0.016117496 -0.015449696 0.009178972
-0.0021407162 -0.0707715 -0.059097137 -0.04251248 0.0073434487 0.0056360876 -0.029672965 -0.015322087
-0.029224962 0.009753244 0.003577155 -0.038230993 -0.0074721263 -0.01816585 0.0039847936 0.009880645
0.03439475 -0.0070193475 -0.04718569 -0.038325325 -0.026945889 -0.008777123 -0.01789332 -0.020649794
0.020843336 -0.041185163 0.008051418 0.02964163 -0.029189993 0.04966344 0.022746122 0.03097854
-0.015572739 -0.016484197 -0.024026623 -0.059967894 -0.02298081 0.04382745 0.047045115 0.026695091
-0.035081796 0.03188815 0.010590077 -0.01409455 -0.053336497 -0.012711246 0.030927122 -0.03768715
-0.002433985 0.031309057 0.043201882 -0.05132033 0.0054664635 0.011196909 -0.0010840729 -0.034045402
-0.024344448 -0.01143383 -0.036385167 0.024791837 0.016378785 -0.026173396 -0.0729959 -0.068636
-0.0021832397 -0.029718056 -0.08494747 -0.062444378 0.043103363 -0.042117104 0.03656814 -0.027628725
0.082359076 0.032182164 0.020560596 -0.004864676 0.094833314 0.06488291 -0.024439484 0.035319604
6.733067e-05 -0.035759605 0.04503231 -0.030953575 -0.008826148 -0.0018348303 0.056984287 -0.04786622
0.053685423 0.024521554 0.05562894 -0.008195322 -0.001654826 0.04240979 0.021595282 -0.043489754
-0.00913629 0.027265374 0.017984986 0.037598643 0.011406504 -0.0761639 0.075016454 0.029417794
-0.08621511 0.003540029 0.058266707 -0.0007016696 0.0040175044 0.020380555 -0.04021804 -0.04155384
0.03339631 -0.05163632 0.0014470003 -0.011742028 -0.07288294 0.006206286 -0.03713744 0.026339928
0.021880245 0.012732459 -0.020231454 -0.034892425 0.0050088447 0.022458449 0.0407402 0.008296081
0.039770655 0.03290465 0.016890978 -0.037305854 -0.055684023 0.011348478 0.009208927 -0.04169209
0.019149302 0.031150386 -0.03139812 0.016280176 -0.02042057 0.029958345 0.03538008 0.037474222
0.02691678 -0.0028281058 -0.04682731 -0.042751946 -0.023001522 -4.6922974e-05 -0.087275006 0.013712627
0.01349101 0.0038992278 -0.009477918 -0.0614151 -0.041800685 0.0060119564 -0.0997771 0.028184315
-0.05617321 -0.059388813 0.04352721 0.024593793 -0.07003214 0.038192663 -0.030213324 0.025805455
-0.037440307 0.011829686 0.030809034 0.042406924 0.047794666 0.015062306 -0.042076774 0.059758376
0.07543875 -0.03389997 -0.057622813 0.04286826 -0.031284966 -0.03501738 -0.019660497 0.044608176
00000000: 1656 9a3c 490e 3ebd b3b2 c7bc 8578 fd3c
00000010: dd26 6ebc ee31 6dbd 1988 463b 216c 843c
00000020: 9f38 4bbd 1dcf 0c3d ae6a d9bc b428 b8bd
00000030: 655b 3f3a c3c9 4bbc a891 eebb e73e d4bb
00000040: bd8e 2cbd 20f6 97bd 287d 613d 5fe7 073d
00000050: 40ea d03b 823a 2c3d 04a7 2ebb bf6f c73c
00000060: 2255 283c 0def 563d 5b1f 103c f42e cbbd
00000070: 6a4d 82bc 7f51 02bd fe37 1fbd 4bdf e73b
00000080: 5f93 c4bd c1a9 9b3b 8ae4 9bbc e063 b8bd
00000090: aeaa 12bd 34f4 edbc 00f1 84bc 2fed 84bd
000000a0: b5a3 bebb 4841 193d 4ae7 5ebc 9e1e d03c
000000b0: 0280 eebc 42f7 073d 94da 143c 54ae b63b
000000c0: 6556 cb3c e07f 49bd e817 7e3c ba2e 4cbd
000000d0: 77cd 15bd c976 6c3d 972e 8f3c 657d 47bd
000000e0: ea78 ac3c 70f3 b43c fe21 16bb 4980 863c
000000f0: 8b1e 663d 0c49 92bb 5f2a 173d 77d7 c43c
00000100: 04f5 92bd e790 a6b8 16aa 653c 88c3 5dbd
00000110: 4b15 5838 d708 84bc b920 7dbc 6663 163c
00000120: 424b 0cbb a6f0 90bd d70f 72bd 9121 2ebd
00000130: 50a1 f03b eeae b83b b814 f3bc 7e09 7bbc
00000140: 3069 efbc 12cc 1f3c b46e 6a3b 1a98 1cbd
00000150: bdd8 f4bb 8cd0 94bc df92 823b 6ee2 213c
00000160: 82e1 0c3d 8e02 e6bb c845 41bd 04fb 1cbd
00000170: a0bd dcbc eccd 0fbc 0395 92bc c229 a9bc
00000180: a5bf aa3c c6b1 28bd 18ea 033c 01d3 f23c
00000190: da1f efbc e46b 4b3d 1356 ba3c b5c6 fd3c
000001a0: cd24 7fbc de09 87bc 7bd3 c4bc e5a0 75bd
000001b0: 4042 bcbc 6a84 333d 61b2 403d aaaf da3c
000001c0: eeb1 0fbd 269d 023d 0182 2d3c d4ec 66bc
000001d0: 5f77 5abd d442 50bc e05a fd3c d75d 1abd
000001e0: 7e83 1fbb ed3d 003d 75f4 303d 4435 52bd
000001f0: 0520 b33b 3d73 373c 7317 8eba 3173 0bbd
00000200: 026e c7bc f554 3bbc 9d08 15bd 4018 cb3c
00000210: cd2c 863c 9769 d6bc e07e 95bd 0891 8cbd
00000220: af14 0fbb 4873 f3bc f0f8 adbd adc5 7fbd
00000230: 278d 303d fc82 2cbd 79c8 153d a355 e2bc
00000240: e0ab a83d 72d1 033d b26e a83c dc67 9fbb
00000250: f837 c23d 55e1 843d 5035 c8bc 4aab 103d
00000260: e133 8d38 aa78 12bd cd73 383d 5a92 fdbc
00000270: 8c9b 10bc b07e f0ba 5b68 693d 5f0f 44bd
00000280: 3fe5 5b3d 6de1 c83c 2cdb 633d ac45 06bc
00000290: bfe6 d8ba e3b5 2d3d 97e8 b03c 5022 32bd
000002a0: 61b0 15bc a25b df3c 4055 933c 0901 1a3d
000002b0: 58e2 3a3c d2fb 9bbd 3aa2 993d 96fd f03c
000002c0: 8c91 b0bd d5ff 673b 12a9 6e3d 40f0 37ba
000002d0: 45a5 833b 1ff5 a63c acbb 24bd 5c34 2abd
000002e0: 92ca 083d 9b80 53bd 46a9 bd3a a361 40bc
000002f0: a743 95bd 1a5e cb3b 6e1d 18bd d5c6 d73c
00000300: 333e b33c ce9b 503c 6fbc a5bc 5ceb 0ebd
00000310: 3c21 a43b c8fa b73c 32df 263d 49ec 073c
00000320: 8ee6 223d 07c7 063d f35e 8a3c 06ce 18bd
00000330: ee14 64bd f7ee 393c 0ae1 163c 53c5 2abd
00000340: ffde 9c3c 182f ff3c 519b 00bd 015e 853c
00000350: 0a49 a7bc 346b f53c b4ea 103d 927e 193d
00000360: 9480 dc3c be57 39bb fecd 3fbd aa1c 2fbd
00000370: b06d bcbc 29cf 44b8 3dbd b2bd edaa 603c
00000380: 6609 5d3c 308a 7f3b 4549 1bbc 668e 7bbd
00000390: 3237 2bbd f2ff c43b f057 ccbd cbe2 e63c
000003a0: e115 66bd af41 73bd 9649 323d ec78 c93c
000003b0: 036d 8fbd e96f 1c3d ef81 f7bc f665 d33c
000003c0: 025b 19bd 4dd1 413c 3a63 fc3c e2b2 2d3d
000003d0: 57c4 433d e4c7 763c b258 2cbd 33c5 743d
000003e0: a27f 9a3d b2da 0abd e605 6cbd a196 2f3d
000003f0: aa24 00bd 626e 0fbd 0d0f a1bc 10b7 363d

decodeur.2.bias f4 [32]
0.44546694 0.6166667 0.0062755253 -0.52135223 -0.43417567 -0.109103195 -0.013359138 0.8116217
0.5548618 0.87707233 0.05334518 -0.2071539 -0.05578126 0.069939904 -0.14244758 0.082936436
-0.4242814 0.0029503678 0.004263754 0.2996059 -0.15639307 -0.06735561 0.5018494 -0.06482642
-0.38376975 0.015801786 0.007164273 0.11365732 -0.03272797 0.6580733 0.44267458 -0.03989536
00000000: 3e14 e43e dedd 1d3f eca2 cd3b 5777 05bf
00000010: 464c debe 7f71 dfbd 49e0 5abc 71c6 4f3f
00000020: 6c0b 0e3f d087 603f 7a80 5a3d 2720 54be
00000030: e47a 64bd a73c 8f3d c7dd 11be 94da a93d
00000040: 693b d9be f55a 413b f6b6 8b3b f265 993e
00000050: 8125 20be bdf1 89bd 3479 003f b7c3 84bd
00000060: 787d c4be bf72 813c 47c2 ea3b 2bc5 e83d
00000070: c40d 06bd 7e77 283f 3ea6 e23e 5169 23bd

decodeur.4.weight f4 [32, 1, 3, 3]
-0.30879074 -0.2132563 0.19656503 -0.44791633 -0.38314018 0.03669449 0.20331378 0.123143844
0.40148056 -0.079401195 -0.36682397 0.11736588 0.24584189 -0.4947125 -0.289704 -0.1828848
-0.0486943 0.55999666 0.19263777 0.059638694 0.33282676 0.2966268 -0.0061507607 -0.14575705
-0.13783444 0.09940233 -0.26903746 0.15638107 0.19519016 -0.050607108 0.23436284 0.1343694
-0.055766363 0.24798208 -0.16407889 -0.26385581 0.10403853 0.21899733 0.25609466 0.20561145
0.23926155 -0.0595528 0.07014272 -0.29577368 0.11528827 0.13829857 0.19599533 0.1331688
0.20333299 0.108841896 0.1343916 0.009732317 -0.25768963 0.23822467 -0.0049684886 -0.36778933
0.3021596 0.25495857 -0.3101603 0.21873 -0.03180354 -0.29214156 -0.20068096 0.16259149
-0.118584625 0.56643695 0.12966366 -0.5488465 -0.24615902 -0.10980746 -0.35816097 -0.21009469
0.11990311 0.13607755 0.44284654 -0.42961493 -0.46299925 -0.22446144 -0.25919637 0.024747372
-0.33961686 -0.110330515 -0.29166126 -0.24742642 0.06389426 -0.09043879 -0.15061815 0.21647832
0.073496684 -0.12835068 0.023261923 0.32526538 -0.15835445 0.033110525 -0.094224066 -0.46704632
0.14943667 0.137667 -0.18319571 -0.06293743 -0.087509565 -0.19188578 -0.17120688 -0.24008115
0.28731957 0.2535317 0.2763261 0.0999866 0.036173016 0.21921855 -0.1774839 0.2845216
0.1286416 -0.04230064 -0.19044156 0.26303247 0.07107199 0.055458322 0.13274944 -0.3312559
-0.21879376 0.19344915 0.08486586 0.04285037 -0.16258703 -0.18065086 0.07391284 0.035485175
0.08497168 0.1668831 -0.27575633 0.2540618 0.2843853 0.0012544987 -0.22702156 0.2679671
-0.3330212 -0.3288715 -0.041857243 -0.37884802 -0.4143574 0.28562447 0.17286806 0.06669823
0.12241092 -0.18851885 0.09370548 0.24382578 0.36982864 -0.13552871 -0.31185055 0.09683836
-0.22024356 -0.21266235 -0.1594545 0.15951079 0.32613152 -0.27275467 0.035423107 0.17515853
0.13336483 0.21776241 0.21196908 -0.016015656 -0.21773185 0.19873078 0.28728428 -0.18255278
-0.17695278 -0.007670011 -0.087914705 -0.3732154 -0.21040376 0.1342142 -0.41086602 -0.46760023
0.27398404 -0.124094434 0.21643294 0.09883976 0.29806885 0.04928403 -0.041680805 0.14441748
0.21438777 0.20107259 -0.15744136 -0.31103528 -0.023630152 -0.08442589 0.18221408 -0.21133298
-0.16475032 0.06926163 0.14067677 -0.22219476 0.05909515 -0.19186616 0.22441635 -0.089336775
-0.01912966 -0.21491471 0.031183872 0.20607987 -0.29889923 -0.39360788 -0.106801644 -0.19715978
-0.24957807 -0.051705606 -0.10132532 -0.13230136 0.094014056 0.02972141 0.12943433 0.11334264
-0.1622393 -0.18366311 0.029951608 0.2445923 -0.16638821 -0.028285144 -0.12562056 0.29108536
0.2465998 0.23023728 -0.33333462 0.22836663 -0.02099113 0.14158806 0.41663337 0.013890621
0.2621965 0.44187176 -0.205118 0.20093553 0.06604282 -0.4796127 -0.27962512 -0.26294586
0.08016797 0.3494858 0.3001016 0.15585674 0.19831622 -0.18968223 -0.05596035 -0.13197425
0.22915336 -0.12966521 -0.26312172 -0.2845324 0.12504396 0.27044135 0.3308211 0.29364634
00000000: d219 9ebe dc5f 5abe 5848 493e 4a55 e5be
00000010: f32a c4be f64c 163d 7d31 503e d732 fc3d
00000020: dc8e cd3e 189d a2bd 5ad0 bbbe 865d f03d
00000030: fabd 7b3e f54a fdbe 1554 94be 2746 3bbe
00000040: ad73 47bd f15b 0f3f d642 453e b447 743d
00000050: 4568 aa3e 78df 973e 528c c9bb 5641 15be
00000060: 7924 0dbe 7393 cb3d 47bf 89be 5c22 203e
00000070: eedf 473e 6649 4fbd d0fc 6f3e 2298 093e
00000080: 456b 64bd 04ef 7d3e 4c04 28be 1c18 87be
00000090: 2712 d53d d640 603e d71e 833e cf8b 523e
000000a0: fb00 753e a3ed 73bd fda6 8f3d a66f 97be
000000b0: 421c ec3d 249e 0d3e 00b3 483e 675d 083e
000000c0: 8636 503e 80e8 de3d f49d 093e 4c74 1f3c
000000d0: e5ef 83be 2bf1 733e b4ce a2bb e24e bcbe
000000e0: aab4 9a3e ee89 823e 55cd 9ebe c2fa 5f3e
000000f0: 6e44 02bd 9493 95be 4f7f 4dbe 627e 263e
00000100: 7fdc f2bd 0302 113f 8dc6 043e 3481 0cbf
00000110: 1c11 7cbe bce2 e0bd e060 b7be 1023 57be
00000120: c38f f53d ea57 0b3e c8bc e23e 7df6 dbbe
00000130: 3d0e edbe 38d9 65be 63b5 84be 00bb ca3c
00000140: 43e2 adbe f7f4 e1bd a054 95be 5a5d 7dbe
00000150: feda 823d f937 b9bd a53b 1abe 7eac 5d3e
00000160: 6e85 963d 5c6e 03be ca8f be3c 2f89 a63e
00000170: ab27 22be e79e 073d 8cf8 c0bd b220 efbe
00000180: ed05 193e 94f8 0c3e a897 3bbe 57e5 80bd
00000190: 3738 b3bd b57d 44be db50 2fbe d5d7 75be
000001a0: 8d1b 933e e8ce 813e 9d7a 8d3e c6c5 cc3d
000001b0: 282a 143d d47a 603e 57be 35be d1ac 913e
000001c0: a0ba 033e 7043 2dbd 1d03 43be 31ac 863e
000001d0: 318e 913d 4428 633d 78ef 073e 609a a9be
000001e0: 790b 60be 8917 463e 27ce ad3d df83 2f3d
000001f0: 377d 26be 8afc 38be 9d5f 973d e758 113d
00000200: a205 ae3d 67e3 2a3e ef2f 8dbe 6314 823e
00000210: f39a 913e fe6d a43a 5778 68be fc32 893e
00000220: c181 aabe d861 a8be 8072 2bbd 5ef8 c1be
00000230: a726 d4be 5f3d 923e 5304 313e 1599 883d
00000240: 94b2 fa3d 160b 41be a9e8 bf3d 77ad 793e
00000250: 2e5a bd3e 0ac8 0abe e0aa 9fbe 3153 c63d
00000260: 8787 61be 29c4 59be 0a48 23be cc56 233e
00000270: b6fa a63e 80a6 8bbe d217 113d c25c 333e
00000280: ca90 083e 1cfd 5e3e 6c0e 593e 4433 83bc
00000290: 19f5 5ebe 1580 4b3e ed16 933e 1eef 3abe
000002a0: 1c33 35be b754 fbbb a00c b4bd 1716 bfbe
000002b0: 1574 57be 726f 093e 085d d2be 4c69 efbe
000002c0: a347 8c3e 3925 febd 99a0 5d3e 806c ca3d
000002d0: 7b9c 983e 0dde 493d 7eb9 2abd 2de2 133e
000002e0: 7888 5b3e f9e5 4d3e 4f38 21be 0440 9fbe
000002f0: 0594 c1bc 7be7 acbd 5496 3a3e ac67 58be
00000300: 4fb4 28be 0bd9 8d3d 920d 103e 0687 63be
00000310: c20d 723d 9078 44be 66cd 653e 33f6 b6bd
00000320: ceb5 9cbc 9a12 5cbe 5275 ff3c 9a06 533e
00000330: 5209 99be f986 c9be d2ba dabd 41e4 49be
00000340: 6591 7fbe 42c9 53bd a683 cfbd 027a 07be
00000350: 718a c03d 507a f33c 6f8a 043e 3020 e83d
00000360: 0f22 26be 2f12 3cbe 135d f53c 6776 7a3e
00000370: ac61 2abe 3fb6 e7bc ada2 00be 2409 953e
00000380: a884 7c3e 52c3 6b3e d6aa aabe f1d8 693e
00000390: 97f5 abbc 76fc 103e f850 d53e 7d95 633c
000003a0: 9f3e 863e 043d e23e 740a 52be 0bc2 4d3e
000003b0: 7541 873d cc8f f5be 062b 8fbe d7a0 86be
000003c0: 1b2f a43d ceef b23e eba6 993e e998 1f3e
000003d0: 6813 4b3e 0f3c 42be ae36 65bd 4224 07be
000003e0: 2ea7 6a3e f5c6 04be e4b7 86be 3bae 91be
000003f0: 860b 003e 4a77 8a3e 6261 a93e d058 963e
